models/dncnn50(7).pth (torch_old, 770342 bytes, 28 tensors)

weight f4 [64, 1, 3, 3]
00000000: 4636 a1be ae25 083d e6dd 613e cc53 e63c
00000010: 071a 07be 23ec a3bc a340 2a3e 4fe7 a0ba
00000020: 7f78 a6bd d68b 153e 6896 e9bd fb6c fabd
00000030: f38e 66bd a957 81be f2fe 1d3e 3d65 48be
00000040: 5252 6f3d b56d 843e 5e40 e93d 81fe 373e
00000050: c580 203e 65a1 c1bd 7153 e1bd e61c c03c
00000060: 2549 eebd fef9 44be cadf e3bd 9dfb f9bd
00000070: 79b0 24be d280 15be 7b03 713e f126 a13e
00000080: e8d0 943e 1bc6 f3bd afb3 20be e372 09be
00000090: 96c6 093d e870 8b3d 1d04 0cbd b069 25be
000000a0: 650d eabd 6a69 be3d ccad c53d dadb 23bb
000000b0: d706 a73c 1b9f e0bd ade7 1dbe c2f8 70bb
000000c0: 2a0b 3d3e b85a 7b3d b8d6 c3bd 1a81 253d
000000d0: 22de 0abd 070b ce3d 14ca 5cbd 37cb 73be
000000e0: 2917 2fbe c455 3e3e 7afa f7bc d21d 60be
000000f0: 4a0e 7e3e 520c 403e e418 99bd 11b9 883d
00000100: 1e34 29be 43a4 943d b1ad 893d 872e 5dbd
00000110: b882 15bd ab42 e4bc fd9d 303e 22e0 e8bd
00000120: 52b0 7b3c 09fd cabd 11bd 17bd e0f3 dbbc
00000130: 15ed b9be e943 bbbd 402a b3bb f21d 02bd
00000140: 5121 683c 93d7 403e cd6b c63d 2f9a e2be
00000150: 7da4 1f3e a9d9 0b3e a2e5 dbbe 6968 283e
00000160: 56c0 073e 4e12 c9be 8c68 263e e97b c33d
00000170: 05b9 cb3d d4a4 883d e52a 6e3d f00f c03d
00000180: 37db 12bf f4ca e5be 7f49 9ebe 86f8 22be
00000190: 431e 0bbe 95a9 35be ce56 f1bd 9116 32bd
000001a0: 459c 0cbe d25c 38be 195e 02be d291 4cbe
000001b0: 453a 91bd 8c5b bbbd f9ff 343e a424 c13b
000001c0: 3b5a 49be 0060 6a3e a26b 5e3c 140b 63be
000001d0: 1373 3b3e 096b e73d 959e b63d 28ae 88bc
000001e0: 9b97 20bc 928d 303e f7ac 93be 1b0e f03d
000001f0: e3c7 4bbe b05d f33c 87ed a9be 82a9 403d
00000200: 51e7 ed3d 20a9 a8be 3443 403d ae8d 2a3e
00000210: c90c dfbe 1091 203d 6d3b 2f3e bbc2 23be
00000220: 6df3 8b3e 9c07 0cbe 4aac f6bd 57f2 973e
00000230: 3cab 01be dc45 c3bd 444e 4a3e 586e 0cbe
00000240: 4e98 7dbe 1749 d6bd 95a2 4ebb 1a57 013e
00000250: bd75 a33d 5c41 0b3d 743c fb3d e6c9 60bd
00000260: b870 17bd db68 983e 7dd2 bcbd ad4e 3ebe
00000270: dba7 953e 0901 2fbd 9d91 06be 3092 0b3e
00000280: 3e84 29bd ec21 b9bd d538 a3bd a4a5 0f3d
00000290: 6631 d5bd 62ec 97bd 2fca f83d b257 523d
000002a0: e145 b83b c1dd b3bc 9157 9f3d 156d a7bc
000002b0: 7275 a6bd 5c43 253d 66f9 71be 0a95 0a3f
000002c0: 42fa 9b3d 1cb2 76bd 6dc8 61bd 6fd2 11be
000002d0: 6482 c6bd 2ff3 513e 130d 1a3e 4f1c 2bbd
000002e0: e611 09bd fd15 6fbe f960 953d 2e62 4a3c
000002f0: 12eb 60bd 4992 8ebd 0674 e8bd b27a 603e
00000300: 3663 c5bc 387c 5dbe c4ec 2c3e c634 0dbc
00000310: 9ad5 ecbd 27f7 283e d1f9 303e 0eea c53c
00000320: b6a1 0cbe 2cbf ea3c 4211 bd3d 209c 16bc
00000330: cfd0 923d 16c3 9ebd 6630 c7bd 7b2d e8bd
00000340: dd2a 0fbd db3a 123e 9ce3 4ebe 8348 23bc
00000350: 396b 1d3e 1705 1cbe 6c0f 673c f4f9 ee3d
00000360: d0d0 a03e 6a60 8f3e bebb d23a 347f 573e
00000370: 2319 ddbd a1bd 68be 77e8 f9bd 9748 6bbe
00000380: 9321 9fbd 2717 02bd eb65 ce3d a722 5fbd
00000390: e3de 303d 5beb eebc 69df 883c e291 63bd
000003a0: 8d7d 15bd 28f6 1e3d ecdb bc3c ed98 3cbd
000003b0: 6cd8 663d bb39 c33c 6148 a33e c3d2 6e3e
000003c0: e662 82be 494d 12be 06c6 993c 28d1 a8ba
000003d0: cf7f 3ebe 3bed 013d 4ed0 87be d70f 3fbe
000003e0: 0e3f 563e 1b8c 8ebc 532c 433e 7f53 043e
000003f0: df7c 413e bcc1 d73c 5225 3bbe 2c39 6f3e
-0.3148672 0.03323906 0.22057304 0.02811613 -0.13193522 -0.02001006 0.1662622 -0.0012275967
-0.081284516 0.14604124 -0.11405641 -0.122278176 -0.05628867 -0.25262192 0.15429285 -0.1956987
0.058428116 0.2586495 0.1138923 0.1796818 0.15674122 -0.09454612 -0.11002243 0.02345128
-0.11635045 -0.1923599 -0.11126669 -0.122061945 -0.16082944 -0.14599922 0.23536484 0.31475022
0.29065633 -0.1190302 -0.15693544 -0.13422732 0.033636652 0.068086445 -0.03418361 -0.16153598
-0.11428336 0.0929745 0.0965229 -0.0025002868 0.020389004 -0.10967847 -0.15420409 -0.0036769365
0.1846129 0.061365813 -0.09562439 0.040406324 -0.03390325 0.10060697 -0.053903654 -0.23807989
-0.17098679 0.18587404 -0.030270804 -0.21886376 0.24810138 0.187547 -0.07475451 0.066759236
-0.16523787 0.07257893 0.06722582 -0.05399945 -0.036501616 -0.027863821 0.17247768 -0.11370875
0.015361862 -0.09911544 -0.037045542 -0.026849687 -0.36313692 -0.09143812 -0.005467683 -0.03176684
0.0141680995 0.18832235 0.0968853 -0.44258258 0.15590091 0.1365725 -0.42948633 0.1644608
0.13256964 -0.39271778 0.16250819 0.09545118 0.09947399 0.066720635 0.058146376 0.0937804
-0.57365745 -0.44881403 -0.30915448 -0.15915117 -0.13585763 -0.17740472 -0.11784135 -0.043478552
-0.13731487 -0.18004158 -0.12731208 -0.19977501 -0.07091192 -0.091483206 0.17675771 0.0058942605
-0.19663326 0.22888184 0.013575466 -0.22172195 0.18305616 0.11299712 0.08916966 -0.016684607
-0.009801771 0.17241505 -0.288429 0.117214404 -0.1990047 0.02970776 -0.3318903 0.047036655
0.11616386 -0.32941532 0.04693909 0.16655609 -0.43564442 0.039200842 0.17112513 -0.15992253
0.27334157 -0.13674778 -0.1204458 0.29677078 -0.12662977 -0.09534809 0.19756418 -0.13713968
-0.24765131 -0.104631595 -0.0031530012 0.12630883 0.07981441 0.03399788 0.1226739 -0.054880045
-0.03697273 0.29767498 -0.09219835 -0.185847 0.29229626 -0.042725597 -0.13141485 0.13629985
-0.04138588 -0.09039673 -0.07969824 0.035070077 -0.10409813 -0.07418133 0.121479385 0.051353164
0.0056235646 -0.021956326 0.07780374 -0.020437757 -0.0812787 0.040347442 -0.23630294 0.54133666
0.07616092 -0.060228452 -0.05512278 -0.1424043 -0.09692839 0.20502923 0.1504405 -0.041775044
-0.033464335 -0.23348232 0.07293887 0.012352509 -0.05491168 -0.069614954 -0.11350255 0.21921805
-0.024095159 -0.21629417 0.16887194 -0.008618539 -0.11564179 0.16500531 0.17282797 0.024159458
-0.13733563 0.028655611 0.09231807 -0.009192497 0.07168733 -0.077520534 -0.09726028 -0.113368
-0.034952987 0.14280264 -0.20204014 -0.009966019 0.15372933 -0.15236317 0.014102798 0.116687685
0.3140931 0.28003246 0.001607768 0.21044618 -0.1079581 -0.22728588 -0.12202542 -0.2297691
-0.07770076 -0.03176036 0.10078033 -0.054476406 0.04318131 -0.02916496 0.016708093 -0.055559047
-0.036496688 0.03880897 0.023054086 -0.04604428 0.05635874 0.023831239 0.31891158 0.23322587
-0.2546608 -0.14287294 0.018771183 -0.0012879716 -0.18603443 0.03172038 -0.2652611 -0.18658386
0.20922491 -0.017400792 0.19059877 0.12922476 0.18895291 0.026337497 -0.18275955 0.23361653

bias f4 [64]
00000000: ad13 42bb 2181 43bd 9f47 a63e e1c5 68be
00000010: ffd8 7e3e 3bd6 a73e df92 ecbc ac19 9f3d
00000020: 4ca3 233e d34b 40be c588 60bd 50e4 723e
00000030: d91f 0cbe 5345 de3e a888 4abd 4d78 4dbe
00000040: f446 a23d 3a23 b4bd 7ae5 3e3e e1b1 103f
00000050: 38f4 d53e aa6f 6e3e 3824 843e 9390 113e
00000060: e059 56be 724a dc3d 4dea c43e 0ed3 283f
00000070: 234f 203e d0a7 b33e db78 c63d 88e9 953e
00000080: 566b b9bd 467d 2038 7dbb 37bd d048 763e
00000090: 69b5 fd3d 8afd febd f505 f63d 213e 9f3e
000000a0: b1b7 72bd 2a61 50bd 1ee0 ff3e f6c1 6abe
000000b0: da17 203e 2257 67be d900 95be 4155 863e
000000c0: 3069 423e b5ec b93d 5c66 14bd f5bf 383e
000000d0: f2e6 4dbe fc61 163e 44cc a83e 4f89 39be
000000e0: 291a e9bd 494d 813e be6a a03d 45b1 4a3d
000000f0: b8f9 b03d b695 963e 88a5 ec3e 28b7 d33e
-0.0029613778 -0.04773057 0.32476518 -0.22731735 0.24887465 0.32780632 -0.028878627 0.077685684
0.15980262 -0.18778925 -0.054817934 0.23719907 -0.13684024 0.43412265 -0.04944673 -0.20065422
0.079236895 -0.087957814 0.18642226 0.5652142 0.41787887 0.23284784 0.25808883 0.14215307
-0.20932722 0.10756387 0.38460007 0.65947044 0.15655188 0.35088968 0.0969102 0.29279733
-0.09053676 3.8263643e-05 -0.044856537 0.24051213 0.12388117 -0.124507025 0.12012855 0.31102088
-0.059257213 -0.050873913 0.49975675 -0.22925553 0.15634099 -0.22591832 -0.2910221 0.2623692
0.18985438 0.090783514 -0.03623043 0.18041976 -0.2010763 0.14685816 0.32968342 -0.18118785
-0.11381943 0.25254276 0.078328595 0.049485464 0.0864138 0.29411095 0.4622004 0.41350675

weight f4 [64, 64, 3, 3]
00000000: 7165 0a3d e7b9 b5bd 60b4 8cbd 0617 2b3d
00000010: 2ad0 cc3c ab80 01bc dbbf be3c 6016 313d
00000020: 1cfc e13b a82d cebd 8e94 13be 27f6 b1be
00000030: 2deb 4cbc 5e08 503c 0fbe 49be 53b5 b43c
00000040: 817d 23bd ce5f b0bd 1c16 d0bd eb85 c9bd
00000050: 183d 86bc 5dee 6e3d 2f8e ffbd 17be 643d
00000060: e5ad 083e 9744 683d 4e80 853c 8fad 00be
00000070: 735d 333d 304b 503e 23bd 5c3c 2014 fbbc
00000080: bd3f 18bd 449b 2d3d 8b27 ef3d 959b 84bc
00000090: 1c5a 42bd 3dd6 093b cb7a 4c3e de47 08bd
000000a0: a3bf 60bd 12e2 dcbd 8fe2 633d 97ff da3c
000000b0: 57a6 9f3c 6ab6 10bc fdfa 9d3b 764f 6c3d
000000c0: 107a a1bd f947 ef3d d706 b13e a7a1 173e
000000d0: 0953 1ebe 2612 093d 864c a33d 24cd 873a
000000e0: 82b3 dc3d 8835 813d 2045 76bc ccb2 033e
000000f0: ebd6 043e 5857 80b9 6ae0 2b3e c1de 1fbd
00000100: f643 833d 71f2 b83d 0fe1 2e3d a62d b43c
00000110: 5096 c43d 5442 e23c fc24 4abb 9393 333d
00000120: 8645 80bc e1ed 3abe 5ef8 1b3c 610f e4bd
00000130: 561c f23b 1863 7dbd 470c afbd 4dc6 303d
00000140: b5e7 883c 0f72 c6bd bf0c ebbd dcf5 efbd
00000150: 506c 5fbb 4500 febd 03b2 6c3c 3e51 e23d
00000160: 19e8 9f3d 0d0e 483d 303b 86bd 47dc 65bd
00000170: dcbe 6cbd d1f1 ba3d d669 9fbc 87e4 553d
00000180: 5848 033c 9d65 3cbd 6599 523c 12a8 89bd
00000190: 4579 31bb 4a65 913c f60a eebb 2ba9 4e3d
000001a0: dae3 82bc c5a2 ccbd 9c07 91bd e709 a6bd
000001b0: 1296 613e 766e 923e 3a73 7b3e 9b0d 633d
000001c0: 26de 243c 9e16 c03d 4528 0d3d 0074 66bd
000001d0: 6290 9fbd b216 22bc fc7e e9bd ed8a 673d
000001e0: 6c7f 97bd b73f 7b3e 6bf3 32bc 89ca 0c3d
000001f0: fc7c 353d 8374 db3c 9a8b 453e 4ea2 373e
00000200: 1d75 d83d ecd2 ad3d 86c0 b33b 5801 d33b
00000210: f9a4 043d 75c1 acbc 512a b1ba 83d1 4bbd
00000220: 433c 5b3e 1ad5 e43e 4171 40be dc82 9aba
00000230: 784a 543e 13db 21be 5ced 8b3b 2085 da3d
00000240: 9bb4 a5bd 2a19 6ebd e38d c73d 9521 2ebd
00000250: d1be 033d ab82 663d 59dc 46bd 3116 46bc
00000260: 9223 66bd aff1 043e 6e6f db3d 6520 c63d
00000270: a098 6f3c dd84 2f3c 9bb5 a13d e51c 11bd
00000280: 98de d7bb 09c3 623d b070 813d 8e43 3abd
00000290: 71bf 803c 7aeb fa3c 3ddd 213e 0555 6dbd
000002a0: f925 12bd 1537 d73d f015 40bc 8d84 c4bd
000002b0: b6d2 dbbd 5661 613d 4ed9 03bd dff0 df3e
000002c0: 9168 52be 7a82 b23d 8d41 69bc 525a 4bbd
000002d0: 5d96 00be 72aa 87bd 0416 423e 3ff1 01be
000002e0: 8421 063d 3b46 bd3d 1917 b73d 22d1 1a3e
000002f0: 2ab1 babd c953 46bd f9a7 aabc 5ed5 8e3d
00000300: cd5a aebb 50c8 92bd 513c 573d fe71 2d3e
00000310: 3d1c 91bd 2be9 b73c b4c2 e13b 03d2 c4bc
00000320: fd3c 623d 4260 26bd 3ff1 013e 29c8 b8bc
00000330: 7e83 a13a 270a 3ebd 2183 c93d 032f 9fbd
00000340: 41c3 173d fe03 bebd cade cdbd ec42 8fbb
00000350: 97f6 17be 06ac b53c 8bb2 f83c fe55 24bc
00000360: baff bcbe ce1d b6be 7db0 a2be 7083 a2be
00000370: 6651 23be 6296 a3bd cda6 3dbe a0d8 833c
00000380: 3a6c b4bd 6e83 cdbc 5411 33bd c285 b53d
00000390: d4a1 b73c 649c 133c 6f22 ce3d 46d3 58bd
000003a0: 9d0a 803d 8a80 0f3d b564 07bd 01f6 00be
000003b0: 9c96 b8bd f18f 8d3d a334 e73d 717f febb
000003c0: 2f50 32bb e5a4 26bd ff07 83bc 68b1 fcbb
000003d0: 7e9f 333d d219 1d3e ccc1 083e 86eb acbd
000003e0: 530c 2abe 5b7b d63d 6e52 d7bd 1a17 e8bb
000003f0: ec7f 743d 5a72 043d 4649 273e 8327 ab3b
0.03378815 -0.08873349 -0.06870341 0.041770004 0.025001604 -0.007904212 0.023284843 0.04323423
0.006896509 -0.10067302 -0.14412138 -0.34758112 -0.012507242 0.012697307 -0.19701408 0.022059118
-0.03991461 -0.08612023 -0.10160467 -0.09839996 -0.016386554 0.05833279 -0.12478291 0.055845346
0.13347585 0.056706037 0.016296532 -0.12566207 0.043790292 0.20341182 0.013472828 -0.030649245
-0.03717016 0.0423844 0.11677464 -0.016187469 -0.047449216 0.0021032237 0.19968717 -0.033271663
-0.05487026 -0.10785307 0.055635985 0.026733203 0.019488497 -0.008832553 0.00482118 0.057692967
-0.0788461 0.116836496 0.3457553 0.14807759 -0.15461363 0.033464573 0.0797358 0.0010360819
0.10776426 0.063090384 -0.015031129 0.12861174 0.1297261 -0.0002447914 0.16784826 -0.039030794
0.06409447 0.09030617 0.0426951 0.021994423 0.09598982 0.027619518 -0.0030844798 0.04384191
-0.015658151 -0.18254806 0.009519665 -0.11135746 0.007388632 -0.06186208 -0.085472636 0.043157864
0.016712049 -0.09689724 -0.114770405 -0.11716816 -0.003409166 -0.12402395 0.014446738 0.11050652
0.07807941 0.048841525 -0.06554258 -0.056118276 -0.057799205 0.09128154 -0.019459646 0.052219894
0.008012854 -0.045995343 0.012853955 -0.0672151 -0.002708034 0.017748494 -0.0072644902 0.0504543
-0.015977789 -0.09991983 -0.070815295 -0.081073575 0.22029904 0.285999 0.24555674 0.055432897
0.01006273 0.09379314 0.034462232 -0.05626297 -0.07791211 -0.009893106 -0.114011735 0.056528974
-0.07397351 0.24536024 -0.010922293 0.03437284 0.044308648 0.026788956 0.19291535 0.17933008
0.105692126 0.08487496 0.005485597 0.006439369 0.032383893 -0.021088341 -0.001351664 -0.049760353
0.21409707 0.44693834 -0.18793203 -0.0011788267 0.20731533 -0.15806226 0.004270239 0.10669923
-0.080910884 -0.058129467 0.097438596 -0.042512495 0.0321644 0.05627696 -0.048549984 -0.012090252
-0.056186266 0.1298282 0.10714613 0.096741475 0.014623791 0.010712829 0.078959666 -0.035427947
-0.0065878145 0.05536178 0.063203216 -0.04547458 0.015716286 0.030629862 0.15807052 -0.05794241
-0.035680745 0.10508553 -0.01172398 -0.095955946 -0.10733549 0.055024467 -0.03218966 0.43738458
-0.20547701 0.08716293 -0.01423682 -0.049646683 -0.12557359 -0.06624307 0.18953711 -0.12689684
0.032746807 0.09241911 0.089399524 0.1511884 -0.091158226 -0.048419748 -0.020832049 0.0697429
-0.005320883 -0.07167113 0.052547757 0.16938016 -0.07085464 0.02245005 0.0068896655 -0.024025923
0.055233944 -0.040619142 0.12689684 -0.022556381 0.0012322513 -0.0463964 0.09839464 -0.07772639
0.037051443 -0.09278105 -0.10052259 -0.0043719914 -0.1484016 0.022176754 0.030358573 -0.010030268
-0.36913854 -0.35569614 -0.31775275 -0.31740904 -0.1594902 -0.079876676 -0.1852066 0.016094506
-0.08809705 -0.025087085 -0.043717697 0.08863403 0.022416033 0.009009454 0.100651614 -0.05293586
0.06252024 0.035034694 -0.033055026 -0.12593843 -0.090131015 0.0691222 0.112893365 -0.007766657
-0.0027208438 -0.0406846 -0.015995024 -0.007711578 0.043853275 0.15341881 0.13355178 -0.0844336
-0.16606264 0.10472747 -0.10513769 -0.007082832 0.05969231 0.032335617 0.16336545 0.005223216

weight f4 [64]
00000000: f9e5 893f 8041 563f 246e 2c3f 134a 8d3f
00000010: 33c4 6b3f 075a 5a3f d172 a33f a1ef 443f
00000020: f3bc 6e3f bb47 763f 3281 053f 9611 703f
00000030: cd4a 623f 5afb 403f f1bf 223f f053 753f
00000040: 6494 723f ee04 2b3f 8c1c 493f 48cb 983f
00000050: 1075 2b3f 4ae6 5e3f cc86 093f cc65 4d3f
00000060: 94e6 6d3f 15d8 0d3f 1e37 9e3f 68b2 583f
00000070: b2c4 6d3f 6e5e 6b3f dfc0 4d3f cb66 483f
00000080: d8e8 473f a592 7c3f 233d 253f 5c48 493f
00000090: fb54 373f 0d94 403f e85a 603f c353 253f
000000a0: 8506 6a3f 4308 533f b914 4d3f 940e 4d3f
000000b0: 8074 803f bc65 703f 5ec2 523f 238c 353f
000000c0: a75b a43f ae7f 1e3f 30f6 643f 8374 493f
000000d0: e5cd 603f 8ac3 4f3f ead8 513f c4eb 4d3f
000000e0: 8f8d 3e3f dcad 183f 1626 713f b017 773f
000000f0: 2dd8 593f 6675 4a3f 2457 5a3f c7a5 893f
1.0773307 0.83693695 0.6735556 1.1038231 0.9209625 0.8529362 1.2769414 0.76928145
0.93257064 0.962032 0.5215026 0.93776834 0.88395387 0.7538353 0.6357413 0.95831203
0.94757676 0.668044 0.78559184 1.1937037 0.669755 0.87070143 0.5372131 0.80233455
0.9292996 0.5540784 1.236057 0.84647226 0.9287826 0.91940963 0.8037242 0.7828185
0.78089666 0.9866126 0.6454641 0.78626037 0.71614045 0.7522591 0.8763871 0.64580935
0.914162 0.8243448 0.80109745 0.8010037 1.0035553 0.93905234 0.8232783 0.70916957
1.284047 0.61913574 0.8943815 0.7869341 0.8781417 0.81157744 0.8197161 0.80437875
0.7443475 0.5964029 0.9419874 0.9652052 0.85095483 0.79085386 0.85289216 1.0753716

bias f4 [64]
00000000: 8d4b 5c3d 67f7 9c3e 7ba3 ae3e 9eec b0bd
00000010: 864d 93be 9681 2d3c 8bd1 1d3e d451 87be
00000020: 1162 1abe 4b3e d53e 72cc f73e 7ba0 9cbf
00000030: acc0 aabe c0ad 723e 52f2 553d 160e 5bbf
00000040: 7d03 bfbe 47a0 56be dead 20be 9b4e 163e
00000050: b6ad 9bb9 6571 273d 562b 5fbe 0e13 aebf
00000060: 821b ec3e 765b 103f 2414 b83c 8968 d2bd
00000070: 72de 09bf 8e8e b33d d737 dfbf 4af4 eabc
00000080: d2af febc 12cf 133f d0ce a5bc 28b6 4abf
00000090: 791b af3c 54ee f33e b63a fdbe 2366 3cbe
000000a0: 5b3d 83bd 3b1c a9bd 4dae 5f3e 73f8 693f
000000b0: b8cb cdbe 8b8b 74be cff0 50be 298e 28be
000000c0: 4bf8 583d e148 443e 8cbe 00bf b9f8 e5be
000000d0: 29c8 9ebf 489a 4a3f 5fa3 d13e 086a ab3d
000000e0: 1719 6cbe 23ea ee39 ef12 b33e 2d4c b43e
000000f0: 4a26 45bd af57 bb3e 4227 8bbd 1581 07bd
0.05378299 0.30657503 0.341091 -0.08638881 -0.28770083 0.010589978 0.15411966 -0.26429617
-0.15076472 0.41649088 0.48398167 -1.2236475 -0.33350122 0.23699093 0.052233048 -0.8556837
-0.3730735 -0.20959578 -0.15691325 0.14678423 -0.00029693329 0.040879626 -0.21793875 -1.3599565
0.46114737 0.5638956 0.022470541 -0.10273845 -0.5385505 0.087674245 -1.7438916 -0.02868094
-0.031089697 0.5773784 -0.020240217 -0.791842 0.021375405 0.47642767 -0.49458855 -0.18398337
-0.06408187 -0.08257338 0.21843834 0.9139473 -0.40194488 -0.23881356 -0.20404361 -0.1646048
0.052971166 0.19168426 -0.5029075 -0.44916323 -1.2404834 0.79141665 0.40944955 0.08369833
-0.23056446 0.00045569343 0.34975383 0.35214368 -0.04813222 0.36590335 -0.06794597 -0.033082087

running_mean f4 [64]
00000000: d4d8 e43f cb42 2d3f 3795 a7bf c20f f53f
00000010: d38e 70bf 8a57 cebf 1f84 39c0 8a8d f13f
00000020: a427 5dbe ffe2 0bc0 93fa 9bbf 2973 9abd
00000030: 17ee bc3f e279 8ebf 0c82 fbbe 301c febe
00000040: 9710 4bbe 5454 fbbf 9085 41bf 11be 36c0
00000050: 60bf 1ec0 85e0 cdbf c9e6 8fbf e4c8 273f
00000060: fe3b e7bf 22df 3fbf 776a 3fbe f8f4 39c0
00000070: a05d 443f 57b7 fa3f 1ffd 923f c2d6 09bf
00000080: dc85 8b3e 107d da3f 2a13 36bf 3443 913e
00000090: 6559 debe debd 48bf b177 f6be 20bf bebf
000000a0: 9c6b 08c0 da93 22bf e5e0 ef3f d9c6 b13e
000000b0: bd6d b23e c110 f83f 0620 863f d85d 16bf
000000c0: e02d c6be d158 85bf 78b7 64be ed13 8d3f
000000d0: f6f3 e53f 2b27 7fbf bdef cf3e d953 a13f
000000e0: 1a10 2ebf 1e89 51be 03c4 80bf b7f9 8f3f
000000f0: 2274 9c3f 1dab f13f e091 2640 fac2 aebf
1.7878671 0.67680043 -1.3092412 1.9145434 -0.9396793 -1.6120465 -2.898689 1.8871319
-0.21597153 -2.1857297 -1.2185844 -0.07541496 1.4760159 -1.1130946 -0.49122655 -0.4963088
-0.19830547 -1.963511 -0.75594425 -2.8553507 -2.4804306 -1.6084143 -1.1242305 0.6554091
-1.8065183 -0.7494985 -0.18692957 -2.9055767 0.7670536 1.9587201 1.1483496 -0.5384332
0.27250564 1.7069416 -0.7112299 0.28371584 -0.43427578 -0.78414714 -0.48138192 -1.4902077
-2.131568 -0.63506854 1.8740507 0.3472202 0.3484935 1.9380113 1.0478523 -0.58736944
-0.38706875 -1.041773 -0.22335613 1.1021706 1.7965076 -0.9966914 0.40612593 1.2603713
-0.6799332 -0.20462462 -1.0059818 1.1248082 1.2222941 1.8880345 2.6026535 -1.3653252

running_var f4 [64]
00000000: 18e8 a73e 5036 9f3d e293 843d c458 9d3e
00000010: e7f9 643d cc88 6c3e 5efd b23e cef9 923d
00000020: c9e0 2b3e 19bd b73e 1589 223d a131 cf3c
00000030: 3101 ec3c 5b5c ca3d 9232 0b3d b6c1 dc3c
00000040: e459 2b3d 5483 2d3d ecde 2b3d 8776 c33e
00000050: c515 413d 37ba 323e 2c72 e63c 4126 ac3b
00000060: 8529 843e b955 b43c c757 e23e f04c 013e
00000070: 4449 853d 771f 273e 3ae0 a83b a031 483d
00000080: 2a53 453d 5bbc 033e 8b88 0c3d 4f82 463c
00000090: 3059 5c3d f040 103d ccc0 593c aa0e f93c
000000a0: 3451 433e 8e4f 4b3d db75 c33d 6630 423d
000000b0: 9e16 873d 44dc 433d 6038 e33d 1c94 f83c
000000c0: bfe3 db3e a15c 523d fb01 083d 73b0 6b3d
000000d0: b6a0 493c 5419 633d ba1d 9b3d 9c40 bd3d
000000e0: d657 943c ef12 293d a036 933e c2f2 be3d
000000f0: c59e c93d 2b37 973d 9bb6 6e3d 4f74 8f3e
0.3279426 0.07774031 0.06473519 0.30731785 0.055902388 0.23099059 0.3495893 0.07176553
0.16784967 0.35886458 0.039681513 0.02529222 0.028809162 0.09880897 0.033983774 0.026947837
0.041833773 0.042361572 0.04196064 0.38176367 0.0471399 0.17453848 0.028130613 0.0052535837
0.25812927 0.022013532 0.44207594 0.12627006 0.06508115 0.16320597 0.005153683 0.04887545
0.048175015 0.1286482 0.034309905 0.012116029 0.053795993 0.03521818 0.013290595 0.0304025
0.19073945 0.049636416 0.095439635 0.047409438 0.06596111 0.047817484 0.11094737 0.030344062
0.42947194 0.05135787 0.033205014 0.057541322 0.012306383 0.055444077 0.07574029 0.09240839
0.01810829 0.041277822 0.28752613 0.09323646 0.09844736 0.07383569 0.058279615 0.28018424

weight f4 [64, 64, 3, 3]
00000000: 197d 1c3d 5923 8f3d ce32 8cbb d0ae 6b3d
00000010: b41a 0cbd 7204 18bc b934 203d 33b5 bd3d
00000020: 039e 433c d389 0e3d 05d1 233d c0d5 263d
00000030: 2b73 893c fe04 3b3d 74d5 553c 6137 0cbd
00000040: ea0e 27bc 9e0f 513d 1c6d 49bc 7cac f23b
00000050: d623 d1bc 5923 a3bc 5956 d1bc 8f52 cf3c
00000060: df9f b9bb 541f b3bc 61d8 f63c e9c9 28bc
00000070: f9a9 2cbd 2493 eebc f504 7fbc db04 2dbd
00000080: 0b51 26bd c968 703c 0aa1 3e3d 49db 04bd
00000090: c18a 0cbc 9c7a 50bc e173 4dbd c5a1 09bd
000000a0: 7c13 4cbd b026 e7bc cd65 13bd 0c4b 6dbc
000000b0: 9acb 03bc ea14 9c3a f895 94bd d485 acb9
000000c0: c8e5 e13d 1fd9 313c ec31 803c 5e05 113c
000000d0: a676 85bd 96c8 29bd 9f91 c83b 588a 783d
000000e0: 8075 24bd 77a9 5ebd cd01 9a3f 5c5f 47bd
000000f0: a800 5c3c 4b22 8fbc e54a 72bd 9b21 a6bc
00000100: b51f ea3c ef23 9abd bc90 40bd beb9 88bd
00000110: 48ad 513d 8a35 a13c dc68 c13c fc27 f53b
00000120: c46f 5abd 021f 5b3d 0350 d83c 698c 113d
00000130: 56d9 15bd e223 bd3d 97fc 39bc c88f 3b3d
00000140: 2e8c 3e3c 36ca 2e3b d8de 0abd 2d61 9dbc
00000150: f904 ff3c ee6b 703f 6cb5 85bc 6496 f83c
00000160: 57c3 173d 7bcf a0bc 24be 593d 42ab 94bb
00000170: 2a3b 59bd 2ea3 0e3d 3fc9 0cbd 30c4 81bd
00000180: dbc8 b83c f055 70bc 983f 5cbc b203 c43d
00000190: 1c18 843d c1d1 373d 2968 e8bc 5937 163d
000001a0: f762 ec3c d93c 993d 643f ed3c 9d79 313d
000001b0: 9683 fe3b acbe 41bc b70b 97bc aba0 27bc
000001c0: c27f d2bc fd7d 3fbd ea5d 9dbc 1ff9 b1bb
000001d0: 7187 bd3c 1636 163d b712 553d 0e07 b4bc
000001e0: 63b9 4d3d 095a a13d 5257 3e3b ea20 543d
000001f0: cee4 a13c ec41 9e3c bd69 f5bb 386d 2abd
00000200: fcd7 d7bc af84 633d 43bf 123c 456f 163c
00000210: 1dcc 813c 115f 003b ba8e 22bb 0549 e53d
00000220: 4635 94bc 9c0d 293b ea44 7c3d 26c2 20bc
00000230: 3a1e 1b3c 2e03 0dbc f846 35ba 98e9 163d
00000240: 762c 043d 04c9 06bd 2314 93bd 4f5b 4e3d
00000250: b2f1 65be f1a0 09bd 84c0 a23c 9d2c efbc
00000260: 9753 2dbe 40f7 b4bb df53 10bd f63b bdbd
00000270: e5cb bcba 8f6e c9bc 2b0e 0b3d 6aa6 13bd
00000280: 138d 2a3c d7a5 773d 20c8 c73d 76ac 0a3d
00000290: 17c1 1d3d 6808 f7bc 6590 d73b aa8e 5abb
000002a0: 3c61 42bd 0c7a bdbc c434 a1bc c477 8ebd
000002b0: 6190 b3bd 9cf7 5b3c e60f c7bc 4284 813f
000002c0: dbc3 07bc da6a 0bbc 766d 3fbd fca7 72ba
000002d0: 4e90 693d 8c08 32bc 8482 3abc 2987 b93b
000002e0: c89f a7bd 3374 5fbd 8d61 893d 416d 87bd
000002f0: 7896 e2bc 1a3e d9bb 35c2 0fbd e38d 52bd
00000300: d7bc 49bd ed90 843d ee61 91bd 45a9 ffbc
00000310: 0eea bd3a 5f91 33bd 0d6c 2c3d d25c acba
00000320: 2684 3fbb 530d 81bd 3f79 cc3c e085 92bc
00000330: a7c1 b93c 8054 6fbc 0a90 82bc e32a 1c3c
00000340: 3a57 b8bc c923 6abb 3939 043d 3744 883c
00000350: 7b1b cabb cee7 ddbc 9a47 0ebb 74d9 6fbc
00000360: f437 a43c ba48 6b3d d37a 28bc bd5f 92bc
00000370: 8dc4 2b3f 31f8 bebc 98c0 223c 317f 27bd
00000380: cbb2 1ebd fb68 563d fd19 20bd 74a1 1a3d
00000390: 929e 263d 1c87 9bbd 55f5 6cbb 799c 1e3d
000003a0: a92f c5bb 9d50 813c 71b5 743d 70fb 54b8
000003b0: 4c95 4a3d a141 a2bc f430 42be be42 4f3d
000003c0: 5451 91bb 1000 9c3c 4cc4 0e3d a75c aabb
000003d0: 3308 e5bc 1d3d 06bc 7c04 54bd e121 6e3c
000003e0: 9d2f 913d 60de 293c ccc4 29bd 241c 623d
000003f0: e369 1cbd ba41 eb3c 7a8d d53c 6167 e43c
0.03820524 0.06989164 -0.0042785173 0.05753976 -0.034205154 -0.009278404 0.03911278 0.09263077
0.011939528 0.03479941 0.03999426 0.04073119 0.01677855 0.045659058 0.0130513795 -0.0342325
-0.010196427 0.051040284 -0.01229408 0.0074058156 -0.025529783 -0.019914316 -0.02555387 0.025307922
-0.00566481 -0.021865524 0.030132474 -0.010302045 -0.042154286 -0.029122896 -0.015565147 -0.04224096
-0.040604632 0.01467342 0.046540298 -0.03243569 -0.008578003 -0.012724545 -0.05015934 -0.03360154
-0.04982327 -0.02821669 -0.035985757 -0.014483225 -0.008044148 0.0011908088 -0.07255167 -0.00032906106
0.110301554 0.010854988 0.015648805 0.008851377 -0.06516771 -0.04145106 0.006120875 0.06067881
-0.04015112 -0.054360833 1.20318 -0.048674926 0.013427891 -0.017472407 -0.059153456 -0.020279696
0.028579572 -0.07526385 -0.04701303 -0.066760525 0.051190645 0.01967885 0.023609571 0.007481573
-0.053329244 0.05349637 0.02640534 0.035534296 -0.03658422 0.0923536 -0.011351726 0.045791417
0.011630101 0.002667082 -0.033903927 -0.019211376 0.0311303 0.9391469 -0.01632186 0.03034515
0.037051525 -0.019630184 0.053159848 -0.004537017 -0.05303494 0.03482359 -0.03437161 -0.06336248
0.022556713 -0.014668927 -0.013442896 0.09571017 0.06449911 0.04487777 -0.02836998 0.036673877
0.028855784 0.07482309 0.028960891 0.04332887 0.007767151 -0.011825245 -0.018438203 -0.010231177
-0.025695685 -0.04675101 -0.01920982 -0.005431309 0.023135873 0.036672674 0.0520198 -0.02197602
0.050225627 0.07878501 0.0029043746 0.0517892 0.019762423 0.019318543 -0.0074894116 -0.041608065
-0.026348107 0.05554646 0.008956733 0.009181802 0.0158444 0.0019587914 -0.002480431 0.11195568
-0.018091809 0.0025795465 0.06158916 -0.009811914 0.009467656 -0.008606715 -0.0006915177 0.036843866
0.032268964 -0.032906547 -0.07181575 0.050380047 -0.2245548 -0.03360075 0.01986719 -0.029196078
-0.16926418 -0.0055226386 -0.035236236 -0.09239952 -0.0014404027 -0.024588851 0.03394906 -0.036047377
0.010409611 0.06046089 0.09754968 0.033855878 0.038514223 -0.030155376 0.0065784925 -0.0033349195
-0.04745601 -0.023129486 -0.01967848 -0.06956437 -0.087677725 0.013425734 -0.024299573 1.0118487
-0.008286442 -0.008509362 -0.04673525 -0.0009256599 0.057022385 -0.010866296 -0.011383656 0.0056618643
-0.08184773 -0.054554176 0.067080595 -0.066126354 -0.02765964 -0.0066297175 -0.03509732 -0.051404845
-0.049252357 0.06472955 -0.07098757 -0.031208644 0.0014489309 -0.04383981 0.042095233 -0.0013150221
-0.0029223054 -0.063013695 0.024960158 -0.017886102 0.022675348 -0.014607549 -0.015937824 0.009531709
-0.02250253 -0.0035726896 0.032281134 0.01663409 -0.0061678267 -0.027088072 -0.0021710158 -0.014639247
0.020046212 0.057442404 -0.01028319 -0.017867917 0.6709679 -0.023311706 0.009933613 -0.040892784
-0.03874473 0.05234621 -0.039087284 0.03775163 0.04067857 -0.075941294 -0.0036156971 0.038723443
-0.0060176444 0.01578551 0.05974335 -5.077891e-05 0.049458787 -0.019806685 -0.18963987 0.05060076
-0.004434744 0.019042999 0.034855172 -0.0051990333 -0.027958011 -0.0081932815 -0.05176209 0.014534445
0.0708916 0.01036796 -0.041447446 0.05520262 -0.03818692 0.028717864 0.026068438 0.027881326

weight f4 [64]
00000000: 0a6a 873f fec9 313f dec4 533f 1ce4 663f
00000010: 16ac 3b3f 031e 433f 88db 1b3f 0899 343f
00000020: a9b6 673f 2cf1 313f 51c2 2d3f 86fc 613f
00000030: a4bf 363f fcf3 113f a879 4c3f 7360 523f
00000040: 36c8 493f b8cf 7d3f 9afd 833f 20de 643f
00000050: 5d8f 633f 3c42 403f f316 663f 3f88 4b3f
00000060: 0241 053f 215f e73e ec73 0d3f 9d43 343f
00000070: 5660 4a3f b591 803f 4bef 213f b231 483f
00000080: 1bfa 023f 0035 3e3f b6e6 243f 5338 4d3f
00000090: d04d 393f eb64 003f dd4a 853f 6bbf 493f
000000a0: bab0 793f ab50 2b3f 2497 6a3f 57dc 683f
000000b0: 9f2f 813f 6f85 333f 1639 4e3f 5c65 7e3f
000000c0: 7432 753f 2ecf 793f 9b9f 163f 6590 493f
000000d0: 7c03 043f d422 523f 6f42 093f dc24 483f
000000e0: da2b 213f 3297 1a3f 884e 3f3f d00b 983f
000000f0: 1149 5a3f 3a2d 553f 773d 3c3f ee2c 333f
1.0579236 0.6944884 0.8272227 0.9019182 0.7330946 0.7621767 0.60881853 0.7054601
0.9051309 0.69508624 0.6787463 0.88275945 0.7138617 0.57012916 0.7987313 0.8217842
0.7882112 0.9914508 1.0311768 0.89401436 0.8889063 0.75101066 0.8987877 0.7950477
0.5205232 0.45189765 0.5525501 0.7041567 0.79053247 1.0044466 0.6325576 0.7820083
0.5116288 0.7429962 0.64414537 0.8016407 0.7238436 0.5015399 1.0413471 0.78807706
0.9753529 0.66919965 0.9163687 0.9096121 1.0092658 0.7012548 0.80555856 0.9937341
0.9578011 0.97581756 0.5883729 0.78735954 0.51567817 0.82084394 0.53616995 0.7818124
0.6295754 0.60386956 0.74729204 1.1878605 0.8526774 0.83272135 0.7353129 0.6999043

bias f4 [64]
00000000: 3bde 4a3f 9316 ba3f 5510 2ebe 0dea f93f
00000010: 8d59 923f 8202 a33e c7e1 6a3e b5c9 173c
00000020: 7993 c13f be0c bd3f 183d 023f 14e7 6abe
00000030: 3114 7c3f dd9d 0f3f 209c cd3d 69b5 eabe
00000040: 0d9d f13e c0ca 9dbf 5362 4b40 e82b 0240
00000050: 3698 16bf adb8 e8be 2fbd 3abf de7b 48bf
00000060: c660 1a3f 5631 1b3f a2c1 0e3e 69da 10bf
00000070: b7ea 9b3f 75cf d83f 0835 a3be 1f6a 62bf
00000080: 3c49 643f c6c4 54bf 6b73 e43e 0c70 38be
00000090: 0b55 15bf 441d 6c3f e57c b43e 1de1 0abf
000000a0: 5cc6 38bf 2393 3e3e e682 f8be a2c2 a13e
000000b0: 79db 2cbf bd66 013f 5d3d 59bf 58fd 84bf
000000c0: 0cb7 47bf b568 86bf 2e36 443f 1b72 ae3e
000000d0: f3bc 243f f07f 773e 5817 173f 0728 05bf
000000e0: ea6c 1e3f fce7 fa3e 247e 203f 826d 593e
000000f0: 76e4 f6be 48f9 323f 9d98 593f 7bea 073f
0.79245347 1.4538139 -0.16998418 1.9524552 1.1433579 0.3183785 0.2293769 0.009264399
1.512313 1.4769514 0.5087447 -0.22939712 0.9846831 0.56100255 0.10039544 -0.4584153
0.47190133 -1.2327499 3.1778762 2.0339298 -0.58826005 -0.45453396 -0.7294492 -0.78314006
0.60303915 0.60622156 0.13941053 -0.5658327 1.2181004 1.6938311 -0.31876397 -0.8844318
0.89174247 -0.8311275 0.44619307 -0.18011492 -0.5833289 0.92232156 0.35251537 -0.54249746
-0.7217767 0.18610816 -0.48537368 0.31593806 -0.6752239 0.5054739 -0.8485926 -1.0389814
-0.7801368 -1.0500704 0.7664517 0.3407143 0.64350814 0.24169898 0.59019995 -0.520142
0.6188494 0.49005115 0.62692475 0.2123318 -0.48221177 0.69911623 0.84998494 0.53092164

running_mean f4 [64]
00000000: 8596 2d40 9a20 8c3f 9b25 173f 5d86 1a3f
00000010: fc5e 8ebe 82ee 61bd 7582 51bf 85ec 04c0
00000020: 025c f03f c530 81be 04dc 0bc0 0ad5 b3be
00000030: 2b01 25be e1b0 973d 524c c1bf db0b 2dbf
00000040: d3a0 913f 473c 4c3e 5969 fd3e 6025 b53e
00000050: e7ed fa3e 0e01 a53f 85bd 97bf 99e9 2c3f
00000060: 7bcf 15c0 21e4 a83e 9988 e1bf d59c 0d3e
00000070: 5907 a83e c47b db3f 54c7 1740 b6b4 e3bf
00000080: 4413 e7bf df3c 08c0 76b6 5abf f536 3740
00000090: e678 0940 8543 71bf aee0 1740 399a 0240
000000a0: 6133 7f3e 9e47 073f 9276 e4bf b533 2fc0
000000b0: e722 29be c53c 55be 858e 3140 a9ec 3f3f
000000c0: 14dc df3d d657 b8bd c58f f0bf 0d5b 12c0
000000d0: 5400 0ec0 8c45 0fc0 d529 29c0 340e c43f
000000e0: 5167 25c0 a60e 92c0 55ab cdbf f895 1140
000000f0: 7b22 113f f09f 84bf 5ef7 15c0 0678 f2bf
2.712312 1.0947449 0.59041756 0.6036127 -0.27806842 -0.0551591 -0.81839687 -2.076936
1.8778079 -0.2523252 -2.1853037 -0.35123473 -0.16113727 0.07406784 -1.5101416 -0.67596215
1.1377205 0.19944869 0.49494436 0.35380077 0.4900963 1.2890947 -1.1854712 0.6754394
-2.3407886 0.3298655 -1.7619811 0.13829358 0.32818106 1.7147145 2.371541 -1.7789524
-1.8052754 -2.1287153 -0.85434663 2.8627293 2.148004 -0.9424365 2.3730884 2.040663
0.24921943 0.52843654 -1.7848685 -2.737531 -0.1651722 -0.20823963 2.7743237 0.7497049
0.109306484 -0.090011284 -1.8793875 -2.2868073 -2.21877 -2.2386198 -2.6431782 1.5316834
-2.584431 -4.564288 -1.6067911 2.2747784 0.5669324 -1.0361309 -2.343223 -1.8942878

running_var f4 [64]
00000000: f40f 7941 736e 1d40 3a2f 1940 d542 c840
00000010: df04 7140 a6d1 1340 9996 ab3f bfe3 c83f
00000020: daea f440 d0ef 8240 984e b63f 8bbb 1d40
00000030: 57bf 1440 6cbc a73f bf08 4a40 1d97 963f
00000040: 4c94 db40 d0af 1d3f 6844 0f41 041c a540
00000050: 72d5 d03f 887b e43f 0eaa 453f 832b 5e3f
00000060: bdde ca3f f95b 843f e821 823f 4e41 ac3f
00000070: baf2 8640 cc95 2f41 81db b53f c973 f23e
00000080: e12a 483f 47a8 323f 47fb b93f 4d82 5640
00000090: 7c9d 0840 7273 e03f a1f9 6a41 8f19 e63f
000000a0: 340d 0140 fbc7 fc3f 6b36 0e40 eac1 6f40
000000b0: f1d5 a93f 55d7 cc3f 7b18 923f 0319 e93e
000000c0: 2525 873f 2c88 173f 7c4b b63f 40a0 a840
000000d0: b920 803f 57d1 2140 c13e a33f b8c5 8b40
000000e0: b963 af3f 3cdd b13f 1171 ff3f f4bf 2b41
000000f0: d74f f93f 54c3 2240 8f7a 1f40 cc6b b03f
15.566395 2.4598663 2.3935075 6.258158 3.7659223 2.309671 1.3405334 1.5694503
7.6536684 4.091774 1.4242735 2.4645717 2.3241785 1.3104377 3.1567838 1.1764866
6.8618526 0.61596394 8.954201 5.15967 1.6315138 1.7850199 0.7721261 0.86785144
1.5849224 1.0340568 1.0166597 1.345743 4.2171297 10.9740715 1.4207612 0.47353962
0.7819043 0.6978802 1.4529809 3.351703 2.134612 1.7535231 14.685945 1.797655
2.0164309 1.9748529 2.2220714 3.7462106 1.3268415 1.6003214 1.1413721 0.45526895
1.0558211 0.59192157 1.4241786 5.269562 1.0009986 2.528402 1.2753526 4.3678856
1.3702308 1.389564 1.995638 10.734364 1.947749 2.543172 2.4918554 1.3782897

weight f4 [64, 64, 3, 3]
00000000: 2b53 f63d ded9 a43d 16e5 363e 363a db3d
00000010: 5e85 3c3d 747c a53d c337 e93d a793 30bd
00000020: 52c8 39be a102 233d 71d1 de3d 893a d6bd
00000030: 61f5 893c 6a45 563d dde9 38bd db78 1b3e
00000040: 9e8c 7b3d 696b 293e 745f 34be 423e 563d
00000050: 37a3 123d ea0f 24bd 90cd a73c 2129 4c3d
00000060: debb 893d 847d 853d a414 7e3e 4842 94bc
00000070: c509 313c 6231 c7bc aca6 dbbc c482 d33d
00000080: 399d 83bd 863c 543b 45fa 133e 4478 383e
00000090: 88d5 41bd 3f6d 003e ccd7 8b3d 5cba d8bd
000000a0: 8909 413c 1d25 42be 7e81 72be d8d6 ccbd
000000b0: 6bc8 1bbe 97a7 9b3d 76cb 4f3d c2c1 4bbe
000000c0: 7022 85bc 2a22 a73d 18f0 8d3d f964 233e
000000d0: b34e 05be 6298 403c 58c0 8abc efb6 133d
000000e0: 75b2 84bd abed 74bd 1a87 1d3c 1c6a 91bd
000000f0: cc72 99bd 2765 6ebd 9997 09bd 1e40 f63d
00000100: b64c ed3b 4892 d63c 90f2 3cbc d87b aebc
00000110: 9b05 2cbe 4373 1ebe 0486 1dbc 4612 2e3e
00000120: d8ed 91bd 3d90 01bd b460 22bd 61b1 fcbd
00000130: 8074 e1bd 4f30 ae3c 6377 f5bd 3957 d3bd
00000140: 0691 adbd 116b 17be fc69 a2ba c8b4 24bd
00000150: 5871 36bd 46cc 26bc d2c7 f5bd 5452 b6bb
00000160: 925f 883d f21c f8bc 21e6 033e 9435 113d
00000170: 8172 c63c af9b d6bd 2a5b 86bd 1d70 20bd
00000180: 967a 75bd e437 02bd af67 3dbd 12ea 13be
00000190: dc79 28be 34ce debd c15a b43c cd93 1f3e
000001a0: 4b9a 29bd 11c7 003e 9ecb b13d ea21 903b
000001b0: a597 d23d 488e 813d de4a fdbd 947e 9f3d
000001c0: be14 2b3e 68c8 d43d e883 823e 6d32 673d
000001d0: 16ba d03d 8887 81bd a602 58b9 88f0 9e3d
000001e0: 0d5d f63b 8ec9 26bd d916 1dbd 8f48 5ebd
000001f0: 9a63 babd 8734 353e ff6e 8fbd 3e12 68bd
00000200: 9832 19be da5a 09be 681c 28be 5b7d 99be
00000210: 7f57 c3bd acab 37bd bba0 8bbc 213e d13d
00000220: 9833 4d3e ffe1 dcbd 0f58 a9bd 3a97 a73d
00000230: 5562 b6bc a422 1dbd 7256 183e 539e 4e3d
00000240: 418c 10bd 0398 f8bd 6430 8ebe fdd8 b63d
00000250: a51d ac3d aba5 773b 3ee6 82bc f4ca 9e3c
00000260: 6670 163e e011 ecbd 8f1e e33a b24e a2bd
00000270: be15 25bc 0a3a cbbd 11cb debd d9e9 d7bd
00000280: f043 8cbd c1a4 81bd 070b fd3c f47b a8bb
00000290: 9d8a 843d abfb 0dbd 25f4 623d 542e b1bd
000002a0: f89d e9bd 7464 6bbe 3308 bdbd 8396 c93d
000002b0: ea5e 3e3e 6632 9d3d a2c4 a53c a9ea 4d3d
000002c0: 7e16 353e 34a2 d1bc 1589 e53c 6e56 a33e
000002d0: 5147 993d dfd0 03be 6db1 063e f228 cebc
000002e0: 4f71 b43c ba4c 78bd 1dfe 093d ceed cfbd
000002f0: 07fd 01be 2223 22bd 8805 3cbc 5df7 5bbd
00000300: 418c 753c 5669 3f3c 0e96 223d e1ae b0bd
00000310: b882 ecbd 3f2b f0bd 69e8 05be 2a21 823d
00000320: 8a2b 3c3d 431f 1f3e 1257 3fbd 9129 c3bb
00000330: 4b05 c23d 9269 db3c 37bf 08bc bc53 0f3d
00000340: ee99 da3d c9f8 f73d 82ba 09bb 6778 853d
00000350: b73b f0bd a759 6d3d 5348 043d 1bda fa3c
00000360: 5f9e 98bc 32aa e6bd c9a6 46be 2bbc e73c
00000370: 6765 803c ce8e 1d3e 1e26 ed3d 5d8b 49be
00000380: 2749 973e 1f36 0d3e a226 983c 542e 6bbd
00000390: 4353 933d f79f 5d3d bdf9 583e 8c0b 013c
000003a0: 7485 c23d 2044 613e 285b bc3d ed0c 243d
000003b0: 01a5 abbd 0a36 d3bc 9632 d33d dcb3 cfbd
000003c0: fcc4 d0bc 1ed9 b7bd cc53 e4bd 8c88 ac3d
000003d0: f46c d13b ea5b 35bc fa1d dbbd a47f fe3d
000003e0: 0eba 0ebb 8361 113d c617 15be ca5b efbd
000003f0: 62ba 253d d1c7 95bb d072 57bd 2009 ab3d
0.12027582 0.08049367 0.17860827 0.10704462 0.046025626 0.08080378 0.11387589 -0.043109562
-0.18142822 0.03979743 0.108797915 -0.104603834 0.016840639 0.052312292 -0.045144904 0.15182821
0.0614134 0.1654488 -0.17614537 0.052305467 0.035800185 -0.04005424 0.020483762 0.04984391
0.06725286 0.06518081 0.24812561 -0.018098012 0.010805552 -0.02431554 -0.026812874 0.10327676
-0.06426472 0.0032384708 0.14450939 0.18014628 -0.04732278 0.12541674 0.06828269 -0.1058242
0.0117820585 -0.1895947 -0.2368221 -0.10001916 -0.15213172 0.076003246 0.050731145 -0.19898131
-0.016251773 0.08160813 0.0693056 0.15956487 -0.13018303 0.011755081 -0.01693742 0.03606313
-0.064793505 -0.05979697 0.00961473 -0.07100317 -0.07492599 -0.058201935 -0.03359184 0.12023948
0.0072418107 0.0261928 -0.011532441 -0.021299288 -0.16799013 -0.15473656 -0.009614471 0.16999158
-0.07125443 -0.031631697 -0.039643005 -0.1233852 -0.11008549 0.02126327 -0.11985662 -0.10319371
-0.08474927 -0.14786936 -0.0012391205 -0.04021147 -0.044541687 -0.0101805385 -0.12001003 -0.0055640135
0.066588536 -0.03028724 0.12880756 0.035451487 0.024224522 -0.10478913 -0.06560357 -0.03916942
-0.05993136 -0.031791583 -0.04624146 -0.1444476 -0.16452736 -0.10879174 0.022015931 0.15583725
-0.04140691 0.12575938 0.08681415 0.004398574 0.1028283 0.06325966 -0.123677954 0.07787815
0.16707131 0.10389787 0.2549126 0.056444574 0.10191743 -0.06324679 -0.00020600352 0.077607214
0.0075184167 -0.04071956 -0.038351867 -0.054268416 -0.09101029 0.17695819 -0.07003593 -0.056658022
-0.14960706 -0.13413563 -0.16417086 -0.2997845 -0.09538173 -0.044841453 -0.017044416 0.10216928
0.20039213 -0.10785293 -0.08268749 0.08183141 -0.022263685 -0.038363114 0.14876726 0.05044396
-0.035290007 -0.12138369 -0.27771294 0.08928106 0.08404092 0.0037787955 -0.015978929 0.019383885
0.14691314 -0.11526847 0.0017327833 -0.07925166 -0.0100759845 -0.099231794 -0.108785756 -0.1054265
-0.068488955 -0.063302524 0.030889047 -0.0051417295 0.06471751 -0.034663837 0.055408616 -0.086514145
-0.11407083 -0.22987539 -0.092300795 0.09843161 0.18590894 0.07675628 0.020235363 0.050272617
0.17684361 -0.02559004 0.028019467 0.31901878 0.07484306 -0.12872647 0.1315362 -0.025166009
0.022026686 -0.060620047 0.033689607 -0.101527795 -0.12694179 -0.039584287 -0.011475928 -0.0537027
0.014987052 0.011682829 0.039693885 -0.086271055 -0.1154837 -0.117269985 -0.13076939 0.06353982
0.04593996 0.15539269 -0.046713896 -0.005955883 0.09473666 0.026783738 -0.00834637 0.034991965
0.10673891 0.12107999 -0.0021015708 0.065171055 -0.1173014 0.057946827 0.032295536 0.030621579
-0.018630205 -0.11262931 -0.19399561 0.028287968 0.015673352 0.15386507 0.11579536 -0.19682069
0.29547998 0.13790177 0.018573109 -0.05741723 0.07193615 0.054107632 0.21189018 0.007876288
0.094981104 0.21998644 0.09197074 0.04005139 -0.08381081 -0.025782604 0.10312383 -0.10141727
-0.025484554 -0.08976959 -0.111487955 0.08424482 0.006391162 -0.011069277 -0.10699077 0.12426689
-0.0021778378 0.035493385 -0.1455985 -0.11687429 0.04046095 -0.004570939 -0.052599728 0.0835135

weight f4 [64]
00000000: 189f 7b3f c316 433f f0e5 4a3f d50f 433f
00000010: 9d83 5a3f 40b7 4d3f c37b 653f d195 833f
00000020: 1079 793f ef69 7b3f eef7 5d3f 6520 823f
00000030: b4ca 6b3f cdf5 813f 4c35 843f de50 3c3f
00000040: 684d 533f 3e1e 7e3f d8b7 813f c8dc 583f
00000050: 793c 6e3f e35e 4d3f b32e 4f3f c20c 863f
00000060: 9582 4b3f 1be1 363f 6168 433f e342 703f
00000070: 84c0 843f cc32 4d3f ea3a 433f 1da4 343f
00000080: f3a5 363f 9900 5f3f c552 4b3f b083 7f3f
00000090: 105a 5b3f c9a4 173f 232c 403f fb6d 523f
000000a0: 2c8f 463f 90e7 433f de29 6d3f 4830 713f
000000b0: 25ac 873f 896a 5a3f d9af 3e3f a5e2 5b3f
000000c0: 732b 313f 34a6 653f 79ad 483f 9ad3 6e3f
000000d0: 848d 3a3f 9eee 393f 225c 4d3f fae6 393f
000000e0: 2d22 413f 2a17 463f 3787 503f f539 373f
000000f0: ac1c 6a3f 6be8 4b3f 4887 4e3f 57d0 573f
0.9828963 0.76206607 0.79257107 0.7619603 0.85357076 0.8035774 0.8964197 1.0280095
0.9745035 0.98208517 0.86706436 1.0166136 0.92106175 1.0153137 1.0328765 0.73560894
0.8253999 0.99264896 1.013423 0.84711885 0.93061024 0.8022291 0.8093063 1.0472643
0.7949613 0.71437234 0.76331145 0.9385206 1.0371251 0.80155635 0.7626177 0.70562917
0.7134697 0.87110287 0.7942317 0.99810314 0.856843 0.5923582 0.7506735 0.82199067
0.7756221 0.7652521 0.9264201 0.94214296 1.0599409 0.8531881 0.7448707 0.8589271
0.69206923 0.8970673 0.783897 0.9329163 0.72872186 0.72629726 0.8021871 0.7261807
0.75442773 0.77379096 0.8145632 0.7157281 0.9145 0.79651517 0.8067517 0.84302276

bias f4 [64]
00000000: 525e c9be ba11 79bf 40df c13c b4c7 993e
00000010: 73a5 223e 9660 a93e 312b 1d3f 7319 56be
00000020: 4c09 04bf 6cc7 dabe f435 d53e e546 413f
00000030: 5cda 073e 8aab 1abf 41bf dbbe 62ad d2be
00000040: 1b18 c93f bd66 603e d95f 4f3e c016 eb3e
00000050: 191a d13e 699d c03e bbac f93e ec09 43be
00000060: f89b 183f 1b9d 3f3e e27e 223f 3e2b a13d
00000070: 7117 f8be f173 ee3e e709 c73e 07e5 a2be
00000080: 0a60 3ebf f513 ed3d a8ec ad3e 6d37 e0be
00000090: 0feb 013f e6e4 a0be fd5e ae3e a436 cc3e
000000a0: 19fc 743e 1fbb 953f 5b79 b23e 9885 c9be
000000b0: 403b 5140 50d6 0a3f 03f3 033e 0c8c 1a3f
000000c0: d6f2 983e d288 423e 66e2 5e3f 97ee 53be
000000d0: af73 1e3e 5232 54bf 651d f63e bbbe 0b3f
000000e0: 3488 443f 5f2d 18bf 1bbf 073f 321a 42bf
000000f0: 146e 95be b4d5 98be 0be5 6d3f 2735 6d3f
-0.39329773 -0.97292674 0.023666024 0.30035174 0.15883426 0.33081502 0.6139403 -0.20908146
-0.51576686 -0.42730272 0.41642725 0.754988 0.13266891 -0.60418 -0.42919353 -0.41147906
1.5710481 0.21914192 0.20251407 0.45915794 0.40840223 0.37620094 0.48764595 -0.19046754
0.5961299 0.18712275 0.6347486 0.07869576 -0.48455384 0.4657283 0.38874742 -0.3181536
-0.74365294 0.11576072 0.33969617 -0.43792287 0.50749296 -0.31424636 0.34056845 0.39885437
0.23924293 1.169773 0.34858212 -0.39359736 3.2692413 0.54233265 0.1288567 0.60369945
0.2987277 0.18997505 0.87064207 -0.20696484 0.15473817 -0.8288928 0.480693 0.54587907
0.7677033 -0.5944423 0.5302598 -0.7582122 -0.29185545 -0.29850543 0.92927617 0.9265923

running_mean f4 [64]
00000000: e521 02bf 2f82 59c0 55ac b0be 2d75 fcbf
00000010: eac9 803f 0731 1a40 909e 8240 0ba1 3140
00000020: e46c b63f d936 803f 42ec f33d da64 7c40
00000030: b13f f3bf a7a2 453f 77f3 1540 2b37 3340
00000040: 411c a0be 8af9 053f b908 9040 5dea 42c0
00000050: a38f b73f 0eda 32bf 8df1 3f40 5f09 353f
00000060: 98be 093f 78ad c4bf 207b d8bf 3307 b3bf
00000070: f408 1840 d0a4 b3bf 2ca0 12bf c181 66bf
00000080: 9112 fbbf 1929 a9bf be2b 98bf 8664 0d40
00000090: f329 82c0 a62a a0c0 f1b2 4bc0 1ea4 58c0
000000a0: 7522 113f 235b b23f e177 a2bf b712 5440
000000b0: e050 d340 7bd0 5cbe 1714 26bc 2df3 a0bf
000000c0: 31bf 963f 7ca9 0840 6b17 3d40 05b3 333f
000000d0: 1b95 60bf 5f57 6fbf cbd1 d1be 8eea 0cbe
000000e0: 03cd d93d a2aa ccbe 890a db3d 7dfa 0fbf
000000f0: 4f9a 87bf 32ea 9dc0 626e 363e 0a37 6e3f
-0.5083297 -3.3985708 -0.3450648 -1.9723259 1.0061619 2.4092424 4.081856 2.7754543
1.4251981 1.0016738 0.11910297 3.9436555 -1.9003812 0.7720131 2.342985 2.8002422
-0.31271556 0.5233389 4.501065 -3.0455544 1.434071 -0.69863975 2.999118 0.70717424
0.5380645 -1.5365438 -1.6912575 -1.3986572 2.3755465 -1.4034672 -0.5727565 -0.9004174
-1.9615041 -1.3215667 -1.1888349 2.2092605 -4.0676208 -5.005206 -3.1827967 -3.385017
0.566932 1.3934063 -1.2692834 3.3136423 6.6036224 -0.21563904 -0.010136626 -1.2574211
1.1777097 2.1353445 2.9545543 0.7019504 -0.87727517 -0.9349269 -0.40980372 -0.1376135
0.10634806 -0.39973933 0.10695369 -0.5624159 -1.0593966 -4.9348383 0.17815545 0.9305273

running_var f4 [64]
00000000: 3169 6e40 7225 6d3f 1b63 8b40 a1bf 7640
00000010: 5b17 5d40 86e7 1b40 776d 2a41 f5d1 9940
00000020: 6f32 3640 4ec6 8b40 4857 2840 d412 a741
00000030: d77e 8d40 212b 0f40 5fbb 5e40 84a9 d940
00000040: 146d 2e41 02ff ab40 fcf0 8141 ba74 4440
00000050: fc85 2f41 97a9 2140 a91d e240 574a 3541
00000060: d89c bc40 6560 3b40 eb95 6840 f26b 5140
00000070: 088a 5f40 880b 6940 fb74 a640 5cad 3b40
00000080: 78c9 9a3f 991f ac40 10d6 9040 8ffd fd40
00000090: 1d2b b140 349f 2f40 cd5a 7d40 ea1e b740
000000a0: 284b cb40 18c2 a040 a28a a240 4ea8 8940
000000b0: 1338 5041 6e0d d740 f226 9540 e3e6 f040
000000c0: b678 e03f b5b0 a740 efb1 0841 ede7 5740
000000d0: 39bd 3040 16b8 9e3f 15f8 8440 caa5 6240
000000e0: ae51 9040 9c28 f43f b324 9840 1a54 943f
000000f0: fe76 0e40 ae9d 6f40 5ad7 c940 01bd ff40
3.7251704 0.9263526 4.355848 3.855446 3.4545505 2.436006 10.651725 4.8068795
2.8468282 4.367957 2.6303272 20.884193 4.4217334 2.2370074 3.4801862 6.801943
10.90163 5.374879 16.242668 3.0696244 10.970211 2.525976 7.0661206 11.330649
5.894146 2.9277585 3.6341503 3.2722135 3.4927998 3.6413288 5.20178 2.932456
1.2092733 5.378857 4.5261307 7.937202 5.536513 2.744092 3.958667 5.7225237
6.3529243 5.023693 5.079423 4.301795 13.01369 6.7203894 4.661004 7.5281844
1.7536838 5.2403207 8.543441 3.3735306 2.7615492 1.2399929 4.1552835 3.541369
4.5099707 1.9074893 4.75448 1.1588166 2.2260127 3.743999 6.307538 7.991822
