models/DNet(sigma=25)_2.pth (torch_old, 770697 bytes, 28 tensors)

weight f4 [64, 1, 3, 3]
000000 61 73 67 bd 9c 62 b5 bd d6 03 0e be 39 9e 52 3e
       -0.05650652 -0.08856699 -0.13868651 0.2056817
000010 22 7a 82 3e 32 90 54 3b 0b 6c 93 3c 90 82 b6 bd
       0.25483805 0.003243458 0.017995855 -0.089116216
000020 0e 96 2a 3e a2 a3 34 bd e7 6a 3e bc 04 27 0e be
       0.16658804 -0.044101365 -0.011622167 -0.13882071
000030 69 ac ae bd 47 5d eb 3d 1a d5 2c be 86 6a be bd
       -0.085289784 0.114924006 -0.16878167 -0.092976615
000040 6a ff ed 3d 28 1d 9d bd 78 82 92 bd e4 d9 27 3e
       0.11620982 -0.07671577 -0.07153791 0.16391712
000050 ea 51 6a be 71 d8 50 3e 43 18 bb 3d b9 32 d3 bd
       -0.2288281 0.20395066 0.09135487 -0.10312409
000060 4a 8c d3 3d c0 ae 1c bb 4c f9 a2 bd f9 10 a3 bd
       0.103294924 -0.002390787 -0.07957706 -0.07962222
000070 e6 58 1c be 06 48 9d be b7 73 f4 bb 1f b8 88 3d
       -0.15268287 -0.30719012 -0.0074600833 0.06675743
000080 92 a7 a2 3d 8b 96 df 3c 36 df f5 bd df 70 6f 3d
       0.07942118 0.027293464 -0.12005465 0.05845725
000090 c7 f7 e7 3c fd c8 96 bd a9 51 ee 3c ab ff 8f be
       0.028316392 -0.07362554 0.029091673 -0.28124747
0000a0 3f ee 13 3e f8 05 42 bd 01 9c 8c bd 1e 82 99 3d
       0.14446352 -0.047368973 -0.06865693 0.07495521
0000b0 36 db 79 3c e9 b5 32 be 53 5d 81 bd 31 92 ce bc
       0.015250018 -0.17452206 -0.06316628 -0.025216194
0000c0 bf 11 33 be bb 71 e6 bd 9c 9d 89 3d 00 ca 69 3d
       -0.17487238 -0.11252161 0.06719515 0.057077408
0000d0 21 2e 10 3e f4 f3 07 be e2 ac 8b 3e 51 67 f0 3c
       0.14080097 -0.13276654 0.27280337 0.02934614
0000e0 6b 67 b6 3c 48 11 7b 3e 11 65 48 be 09 41 35 3d
       0.02226611 0.24518311 -0.19569804 0.044251475
0000f0 21 85 50 be 82 84 51 be 2f 69 bb be c7 20 73 bd
       -0.20363285 -0.20460704 -0.36603686 -0.05935743
000100 42 ac 08 3e 07 f0 01 3e 03 41 ba bd f7 b4 b5 bc
       0.13346961 0.1268922 -0.09094431 -0.022181017
000110 ef d1 8f bb 1d 86 c2 bb 7d a8 f3 3d ed 82 4d 3d
       -0.0043890397 -0.0059363977 0.11897371 0.05017369
000120 ef 21 d0 bd 2f f9 05 bb a6 db 13 3e 34 27 50 bd
       -0.10162722 -0.0020442714 0.14439258 -0.050818637
000130 2c 62 ec bc ed d2 45 3d 2e 47 90 be 1b 7f dc 3c
       -0.028855406 0.048296858 -0.28179306 0.026916077
000140 b9 bc e6 3d 8f e7 8e 3e c5 36 75 3e 52 e2 01 bd
       0.11266465 0.2791104 0.23946674 -0.031709976
000150 9e 0d 9e 3d 45 de c6 bb d7 f6 1e bd 29 0d ce 3d
       0.07717441 -0.006068977 -0.038809624 0.10061104
000160 ea 54 36 be f4 4e 2e 3e e8 a6 ff bd e2 eb 19 3e
       -0.1780583 0.17022306 -0.12483007 0.15031388
000170 aa 1f 2f be b4 e9 5b 3e 18 c0 3c 3c 64 a6 d7 bd
       -0.17101923 0.2147587 0.011520408 -0.10529783
000180 b5 b5 00 3d 35 44 28 bc f4 8c f3 3d de 93 cd 3d
       0.03142329 -0.010270168 0.11892119 0.10037969
000190 76 38 97 3c cf 84 a5 bd ee 4f f5 bb 41 55 22 bd
       0.01845954 -0.08081972 -0.007486335 -0.039632086
0001a0 c2 cb 20 3e 61 cf ac bd ef b4 8e bd 9f fa c6 bd
       0.15702727 -0.08437992 -0.06968104 -0.09715771
0001b0 08 76 89 be ce 07 b6 3c c2 93 5f bd 03 91 15 3e
       -0.26847863 0.022220518 -0.054584272 0.14606099
0001c0 39 c4 2f be 2c 9f eb bd cf 25 d1 3b e0 b6 74 3e
       -0.17164697 -0.11504969 0.006382681 0.23897886
0001d0 da 86 95 bd b0 ac af bc a1 ad 86 bd 3a 34 8d bc
       -0.073011115 -0.021444649 -0.06576086 -0.017236818
0001e0 42 c8 0d 3e 12 be 38 be 73 74 19 3e b4 39 b7 bc
       0.13845924 -0.18041256 0.14985828 -0.022366382
0001f0 40 05 80 bb a7 b3 12 3e 06 4a 1e bd 19 d7 f3 3c
       -0.003906876 0.14326344 -0.038644813 0.029765652
000200 2e cd cb bd c6 d9 b8 3b f3 f1 c4 bd 76 b1 45 be
       -0.09951244 0.005641195 -0.09616461 -0.19305977
000210 90 79 4b 3d 81 eb b2 3d 5f 78 ec bd b8 4d 94 3e
       0.049676478 0.08736325 -0.115463965 0.28965545
000220 e1 ae 45 3c b6 86 24 3c 7c 1b 53 be e0 9e 7b bd
       0.01206562 0.010041883 -0.20615953 -0.061430812
000230 64 61 b6 bc 4f 04 d4 bd ab 5c 93 3c 4c a7 34 3d
       -0.022263236 -0.10352384 0.017988523 0.04410486
000240 02 87 83 3c c0 fc 01 bd 6b e0 3e be a3 3d 71 3e
       0.016055588 -0.03173518 -0.18640296 0.23558669
000250 84 85 36 bd 00 9e 15 3d 12 29 46 be 10 c2 6c 3c
       -0.044560924 0.036527634 -0.19351605 0.014450565
000260 91 10 10 3d 66 b0 3e 3c 1e 46 33 bd 1a b3 9b 3d
       0.03517205 0.011638736 -0.04376804 0.0760252
000270 a3 ea 0e bd 5e 25 56 bd 36 3a fd 3a 1f a8 41 3c
       -0.034891736 -0.05228173 0.0019319716 0.011819868
000280 30 17 df 3d e2 14 05 bd 00 1b 0d 3e fc 67 95 bd
       0.108930945 -0.03249062 0.13779831 -0.07295224
000290 24 5f 85 3c 1a 0b b5 3c 4a bd 12 be d3 44 57 be
       0.016280718 0.02210002 -0.1433002 -0.21022348
0002a0 7f d7 43 bd 15 5d cc bc 48 88 28 bc b4 cf 36 be
       -0.047812935 -0.024946729 -0.010286398 -0.1785267
0002b0 12 27 5c be 70 0f 1a 3e 29 10 06 bd 40 0b 2b be
       -0.21499279 0.15044951 -0.032730255 -0.1670351
0002c0 5a 99 27 be 1a 30 f7 3d 30 7a 2d be fe 69 6f be
       -0.16367093 0.120697215 -0.16941142 -0.23380277
0002d0 83 a0 98 39 7b 05 a1 bd 66 e8 82 3d ff b3 88 3e
       0.0002911129 -0.078623734 0.06391983 0.26699826
0002e0 72 60 87 bd d8 01 99 bc 40 79 5a 3e d0 0d 8c 3c
       -0.06610192 -0.018677637 0.21335316 0.01709643
0002f0 33 45 61 bd 4f e5 6d 3d 15 af c0 3d f5 8c ba bd
       -0.054997634 0.058080014 0.09408394 -0.09108917
000300 15 fd e2 bd df 01 f3 bd cc ed aa 3c a9 4c 14 bd
       -0.11083428 -0.11865591 0.020865344 -0.03620592
000310 6c af 21 3e c0 b6 e2 bd 85 36 de 3b 2b cc 88 be
       0.15789574 -0.11070013 0.0067814016 -0.26718268
000320 d6 49 d3 bd 13 4c 08 bc 07 91 74 3d ca a2 b8 3d
       -0.103168175 -0.008318919 0.05970862 0.090154245
000330 85 e0 49 be 3e 6e 92 bd 44 56 32 bd 83 77 96 3d
       -0.19714554 -0.07149933 -0.0435393 0.07347014
000340 fb 47 2d 3e e3 54 f8 3d f2 25 2c 3d df ba 1c 3d
       0.1692199 0.12125566 0.042028375 0.03826415
000350 da d4 8f 3d 87 36 14 bd 18 6a 11 3e a2 41 28 3d
       0.0702302 -0.036184814 0.14200628 0.041078217
000360 eb a8 3c 3d a3 de c9 bd 97 36 10 bd 7f d4 0c 3e
       0.04605953 -0.09856918 -0.03520831 0.13752936
000370 8f 33 87 bd e4 88 0a bd 99 3d 6c bd 87 44 28 3e
       -0.06601631 -0.033821955 -0.05767593 0.16432391
000380 fd 17 66 bd a9 27 23 3e 44 ec 90 bc c6 89 45 3d
       -0.05617522 0.15933098 -0.017690785 0.048227094
000390 06 8e 9b 3d 3d 3e 93 3d 6a bb d8 bd 11 78 aa bd
       0.07595448 0.071896054 -0.105826214 -0.08323682
0003a0 74 e7 02 3d c4 7e 91 bd 6f 8d 03 3c 93 e4 c1 3d
       0.031959012 -0.07104257 0.008029326 0.09467425
0003b0 7b 2d 5f 3d 74 1e 9f 3c a4 5a 99 bd 8a 65 54 bc
       0.054486733 0.0194237 -0.074879915 -0.012963662
0003c0 42 01 95 3e 00 18 0e bc 52 3c ea bb 5d 1c 13 3e
       0.29102522 -0.008672714 -0.007148304 0.14366288
0003d0 90 f1 3d 3d 13 52 2c be 3e fb 30 3e 78 6e 05 3e
       0.04637295 -0.16828184 0.17283341 0.13030422
0003e0 35 9f 58 3d 77 a2 f7 3d 7d 4e 66 3e 43 ae da 3d
       0.052886207 0.120915346 0.22490878 0.10677769
0003f0 0a e2 a6 3c 43 80 3b 3e 4e bf 02 3e d2 78 78 bd
       0.020371456 0.18310647 0.1276829 -0.0606621

bias f4 [64]
000000 8b a9 d0 3b 78 55 be bb 91 48 34 3c 71 5b 00 3b
       0.0063678673 -0.0058085285 0.011003629 0.0019585753
000010 b4 37 d7 3b db ea dc 3a e5 9d 55 bc dc 08 00 3a
       0.0065679196 0.001685466 -0.013038133 0.00048841326
000020 12 df dd 3b 02 43 58 3b 46 b2 0f 3c a7 58 70 bb
       0.006770977 0.0032998924 0.008770531 -0.0036673935
000030 02 10 a2 3a e7 a1 fc 3b ef c1 3a 3b a4 c0 fc 3b
       0.001236439 0.00770973 0.002849694 0.0077133942
000040 c3 21 a4 3b 2f d6 6f 3b 36 56 94 bb bf 95 c1 3b
       0.0050089075 0.003659617 -0.0045268787 0.0059077437
000050 24 69 3e 3b 7f bd fa 3b b5 e2 6b bc c8 59 35 3c
       0.0029054368 0.007651984 -0.014397313 0.011068769
000060 54 8f 86 3c 6c 18 20 3c 85 35 5f 3b 34 7c 05 bc
       0.016425766 0.009771448 0.0034059 -0.008147288
000070 5c 11 69 3b ae 40 c7 3b 9c ae 88 3c b7 1e ac bb
       0.0035563326 0.0060807085 0.016684823 -0.005252685
000080 80 8c 8e 3b b2 11 ea bb 2d a8 4b 3c ec 29 a7 3b
       0.004350245 -0.0071432227 0.012430233 0.005101433
000090 41 51 f7 3b 89 d9 9c bb a4 d3 97 3b 0a e9 ea 3b
       0.007547528 -0.0047866744 0.004633384 0.0071688937
0000a0 d8 d9 92 bb 93 b7 46 3c 85 81 e3 ba 28 37 6a 3b
       -0.0044815354 0.012128728 -0.0017357325 0.0035738442
0000b0 fa ac c6 bb 66 7c 32 3b 75 ca 2c 3c 75 c2 39 3b
       -0.006063101 0.0027234792 0.010546316 0.0028344665
0000c0 e9 30 63 3c 23 44 20 bc 80 94 2c 3c dd 39 26 b9
       0.013866642 -0.00978187 0.010533452 -0.0001585255
0000d0 73 74 22 3a 05 b9 41 bb 9d 21 82 bb d3 db a4 bb
       0.0006197162 -0.0029559743 -0.003971292 -0.005031088
0000e0 07 00 39 bb 8e 2d d4 3b 6b ec e8 3b 95 89 cc 3a
       -0.0028228776 0.006475157 0.0071082613 0.0015604967
0000f0 29 9d 99 bb f7 97 4d b8 eb cc 4c 3c bd 5e 3b ba
       -0.0046879244 -4.9017337e-05 0.012500028 -0.0007147601

weight f4 [64, 64, 3, 3]
000000 2d 3c 82 3d 05 05 d3 ba b6 25 0f bc 2c 4f bc bb
       0.06359134 -0.0016099518 -0.008737018 -0.0057467427
000010 72 d6 99 3d b4 97 04 bd 9c 83 a0 3d 1a 68 21 3d
       0.07511605 -0.032371238 0.078376025 0.03940592
000020 05 16 99 3d 65 90 e7 3c e1 97 7b bd cd 5e e0 3c
       0.07474903 0.028267095 -0.06142414 0.027388955
000030 b2 40 6d bc 90 3b 95 bd 26 fd df bc f0 13 2e 3d
       -0.014480757 -0.07286751 -0.02734239 0.042499483
000040 82 d6 c0 3d a9 43 05 3d aa 2b 69 3c ad a0 e0 bc
       0.09415914 0.03253523 0.014231602 -0.027420366
000050 36 a4 0d 3c 37 e9 38 3d eb 5a ba bb fe 1e 0f bc
       0.008645108 0.045144286 -0.005687108 -0.008735416
000060 a8 2c 6a bd 38 08 ce 3d 2e 7b 53 bd 44 43 ae 3c
       -0.057171494 0.10060161 -0.051631145 0.02127231
000070 2b 64 8c 3d 70 90 1e 3d 1e e4 cc 3c b1 73 93 3c
       0.06855043 0.038711965 0.025011119 0.017999502
000080 be ad 2b 3d 31 df 15 bd 01 df 87 3b 3c 3f 22 3d
       0.04191374 -0.036589805 0.004146457 0.039611086
000090 1f 3c d3 bc 88 ec 7e bd 1b 5b 0d 3d 37 56 4e 3d
       -0.025785504 -0.062237293 0.034510713 0.05037519
0000a0 9d e6 1b 3c b6 7c a3 3b c2 3d b4 3c 73 c0 7e bc
       0.009515432 0.004989232 0.022002105 -0.015548813
0000b0 f6 3d 14 3d b4 8d 03 bd 30 c1 8c 3d ce 60 da 3c
       0.036191903 -0.03211756 0.06872785 0.026657488
0000c0 85 08 2b 3d 61 40 94 bc 68 3f 95 3c 4a cf fe bc
       0.04175617 -0.018097105 0.018218711 -0.031104703
0000d0 0c f2 bd bb 98 65 aa bd ae 72 1a bd 2d 91 32 3d
       -0.0057966765 -0.08320159 -0.037707023 0.04359548
0000e0 96 e1 f2 bb fa 64 1f 3d 3e cc 66 3d e6 13 34 bd
       -0.007412146 0.038914658 0.056347124 -0.04396429
0000f0 40 51 2c bd 24 9a 40 3d 72 3a bc bb 8b d5 39 bc
       -0.042069674 0.047022 -0.005744272 -0.0113424165
000100 da 64 4c bd 99 06 53 bc 32 a1 9d 3d e7 f2 a6 3c
       -0.049900867 -0.012879991 0.07696761 0.020379497
000110 bf 48 19 bd 9c a5 e8 3c 5a 80 88 bc fe f1 83 3d
       -0.03742289 0.028399281 -0.016662765 0.06442641
000120 30 f4 64 bd aa 91 2d 3d de 62 65 3c 3e e7 df 3c
       -0.055896938 0.042375244 0.014000623 0.027331945
000130 74 61 10 bd 0c 8e 51 bd f5 8d 77 3b 9f 52 c7 3c
       -0.03524919 -0.051160857 0.0037773822 0.024331389
000140 33 97 ef 3c 22 7d 9a bc b2 bf a7 3b a0 c6 70 bc
       0.029246902 -0.018858496 0.0051192874 -0.014695793
000150 77 ee 85 3c 2a 36 2f bc f5 da 83 3d a3 a5 a9 3c
       0.01634906 -0.010694066 0.06438247 0.020708865
000160 28 7e 26 3d 58 e0 c4 bb 37 8b 85 3d 59 5b 1a bd
       0.040647656 -0.006008189 0.06520694 -0.037684772
000170 c6 41 79 3d 20 4a 3f 3d 3d 5d 8c bd 12 98 22 bd
       0.060853742 0.04670155 -0.06853721 -0.039695807
000180 4d 35 b1 3b 27 62 31 3d 17 33 5b 3c cd ef c3 3c
       0.0054079653 0.043306496 0.01337888 0.023918057
000190 08 a1 3f 3a cb 7c 0d 3b 4d a5 96 3d df 7e 19 3d
       0.00073100673 0.0021589275 0.07355747 0.03747451
0001a0 32 3b b5 3c 93 58 23 3d a5 b5 7c bc 6b 86 3a bd
       0.022122953 0.039879393 -0.015424167 -0.045538347
0001b0 73 27 1e 3d 56 2c aa 3c 47 8c ed 3c ac 29 72 bd
       0.03861184 0.020773094 0.028997554 -0.059121773
0001c0 e6 e7 8d bc 58 8d 17 3d e1 74 88 bc 41 ca 26 bc
       -0.017322492 0.03700003 -0.016657295 -0.010180057
0001d0 8c d4 bc bd 8c 0d 75 bc 0e 49 8f 39 12 f9 4f 3c
       -0.092202276 -0.014956843 0.00027329515 0.01269366
0001e0 21 2e 5c bd 50 8c 25 bd 42 ca 7a bc 9a 96 10 bd
       -0.05375493 -0.040417016 -0.015307011 -0.035299875
0001f0 80 d5 6e bd e7 ba a1 3d a6 46 fc 3c 81 c3 37 3b
       -0.05830908 0.07896977 0.030795407 0.0028040113
000200 1c b8 9f 3c 7b 2e ba 3c 7f 70 0b 3d 0a 16 87 3d
       0.01949697 0.022727242 0.03404283 0.065960005
000210 ad 0c 70 3d ae 7e 90 3c d0 a7 94 3d de c2 45 3d
       0.05860584 0.01763853 0.0725857 0.048281543
000220 fd 15 86 3d d1 d6 99 bd 0c 92 1a bb 46 cb 79 3a
       0.06547163 -0.07511676 -0.0023585586 0.00095288863
000230 c4 c0 9c bd 38 6c 4a 3d 03 29 3b bc fe bd 15 bc
       -0.076539546 0.04941961 -0.011423352 -0.009139536
000240 7e 2a 95 3d 21 fb d7 3a 01 69 23 3c ff ef 91 bc
       0.07283495 0.001647804 0.009973765 -0.017814634
000250 3c cc cd 3c 71 ab 0b bd c6 2a 24 3d 78 d9 f9 3c
       0.0251218 -0.034099046 0.040079854 0.030499205
000260 d4 50 c9 ba a7 52 fb 3b dc 2d 98 3d fa 47 9f 3c
       -0.0015359172 0.007669765 0.07430622 0.0194435
000270 a3 07 b9 3c 2d ce 71 bd 15 2c d0 bc 34 93 da bb
       0.02258665 -0.059034515 -0.025411645 -0.00667038
000280 d9 a7 49 bd 92 36 40 bc 91 e3 13 bc 2e f4 da 3c
       -0.049232338 -0.011731761 -0.009026424 0.026727762
000290 35 9a 03 bd f0 83 27 bc 26 d8 84 bc d2 f3 48 3d
       -0.032129485 -0.010224327 -0.016216349 0.04906065
0002a0 6f 99 34 3b 2e c0 b2 3c 54 65 d5 bc 5d f6 a3 3d
       0.0027557274 0.021820154 -0.026049294 0.080059744
0002b0 3e 7c 81 bc 46 99 44 bd 23 70 bf bc 5f e1 50 3d
       -0.015806314 -0.047997735 -0.0233689 0.05099618
0002c0 fd 9a 42 bd 93 db 7e bb 4d 60 3f 3d c2 09 19 3d
       -0.04751109 -0.00388882 0.0467227 0.03736282
0002d0 3e e2 a8 bb a2 f1 85 3b a1 a7 59 3c 21 b0 2f ba
       -0.0051539233 0.0040876428 0.013284595 -0.00067019655
0002e0 0b 94 6c bd 5e 82 89 3c e5 0e d5 3c 88 d9 85 bd
       -0.057758372 0.016785797 0.026008079 -0.065356314
0002f0 9b ae 88 bc 92 15 e9 bc c5 cc 12 bc 1a 1f e5 3c
       -0.01668482 -0.028452668 -0.008959954 0.027968932
000300 95 8f f3 bb b4 30 8d 3d ee 30 09 3d 77 7e 47 3d
       -0.007432888 0.06894055 0.03349393 0.04870459
000310 34 d9 2a 3c 38 c8 af 3c e8 4e 7b 3c 74 17 87 3d
       0.010427762 0.021457776 0.015338637 0.0659627
000320 33 33 8a 3d 6e 6f b5 3d e5 ee 96 3c 86 c8 86 bc
       0.06748047 0.08859144 0.01842446 -0.016453039
000330 46 93 aa bb 90 5f b0 3c 53 27 b3 3c a1 92 7e 3d
       -0.0052055446 0.021529943 0.021869337 0.062151555
000340 d8 44 3f bb cb 45 0e 3d af e8 52 3b 3b cc a2 3c
       -0.0029185321 0.03473453 0.0032182147 0.019872775
000350 ec cf c1 bc 11 49 91 3d f2 01 6e 3d a3 93 f6 bc
       -0.023658715 0.070940144 0.058107324 -0.030099696
000360 33 90 72 bd 93 ee 90 3d 0f be 37 3c 24 97 92 bc
       -0.05921955 0.070767544 0.011214747 -0.017894335
000370 9c 36 e8 bc 68 c4 94 bc 1e c6 1f 3d 1b 6b 55 3c
       -0.028346352 -0.01816006 0.0390073 0.013026024
000380 9d 2f 78 3c 90 22 2d bd 6b 6e b6 3d 98 e0 22 3d
       0.015148071 -0.04226929 0.08907779 0.03976497
000390 4c ad 02 3d 42 1c dd 3b 97 9b 3e 3d c4 4d 44 bd
       0.03190355 0.0067477534 0.0465351 -0.047925726
0003a0 72 65 3a bd 83 18 0f bd 1a 83 96 3d 75 b7 d8 3c
       -0.045506902 -0.034935486 0.073492244 0.026454667
0003b0 58 48 0a 3d b2 96 30 3d 16 83 8f bd 53 b5 93 bc
       0.0337604 0.043112464 -0.070074245 -0.018030798
0003c0 b4 f9 fa 3a a8 2f be 3b e6 51 8e 3d 15 39 e2 bb
       0.0019147904 0.005804021 0.06949215 -0.0069037774
0003d0 19 58 ea 3c 77 c1 76 3d 81 33 4e 3d 77 ab 52 3d
       0.028606461 0.060243096 0.050342087 0.051433053
0003e0 06 8d 3f 3d 58 0c 8b 3a 10 01 34 3d 8c 56 39 3d
       0.04676535 0.0010608537 0.043946326 0.045248553
0003f0 ba ee 1e 3d 3b 0f 01 3d 39 46 07 3b fc 77 c1 bc
       0.038801886 0.031508666 0.0020641221 -0.023616783

running_mean f4 [64]
000000 06 9f b7 3e 37 22 81 be aa e1 01 be f3 f6 8d 3e
       0.35863513 -0.25221416 -0.1268374 0.2772747
000010 6b 59 5d 3c ea 72 a0 3e f2 5f 1c 3e 41 c3 90 be
       0.013510088 0.31337672 0.15270975 -0.28273967
000020 7f 5f c0 3d 6c 4c b0 bd 51 1c 9a 3d 64 da d7 3d
       0.093932144 -0.08608326 0.07524932 0.105397016
000030 95 5f 20 3e 9b d2 8f 3d 34 9a 75 be a3 e9 e0 bd
       0.15661462 0.07022592 -0.23984605 -0.10982063
000040 1a c7 12 3d e3 c1 97 be a7 a2 1c be 86 80 6e be
       0.03583441 -0.2964011 -0.15296422 -0.23291215
000050 07 0b a4 3e bb 82 54 3e 09 d0 b9 be e5 64 56 be
       0.32039663 0.20752995 -0.3629153 -0.20936926
000060 fe cf 9b 3e 27 69 a3 be b5 bf 4b be 4f 2a d1 3d
       0.30432123 -0.31916162 -0.19897349 0.10213148
000070 90 07 91 bd e3 cd af be ae fd b5 be 81 7e 07 3e
       -0.070815206 -0.34336767 -0.35545105 0.13231851
000080 df 2e bb bd 3c 17 08 3e 1a 1d 88 be 6d 39 43 3e
       -0.09139799 0.13290113 -0.26584703 0.19064875
000090 42 5c ef 3d f5 f1 00 be cc cf 7c be 42 23 a7 3e
       0.11687519 -0.125923 -0.24688643 0.32644087
0000a0 c2 d4 d0 bd 97 80 33 be 4d aa ce bd 83 c2 ad be
       -0.1019683 -0.17529522 -0.10091076 -0.33937463
0000b0 3d c9 a5 3e 73 9e 14 be d2 54 b0 3e 57 01 36 3d
       0.32380095 -0.14513569 0.34439713 0.04443487
0000c0 34 9b 96 3e 11 00 b3 3d ba 6c 64 be b9 5f 38 be
       0.29415286 0.08740247 -0.22307101 -0.18005265
0000d0 39 13 44 be b6 ec 84 3d ca 56 48 be a9 a3 b1 be
       -0.19147958 0.064904615 -0.19564357 -0.34695175
0000e0 7b 97 81 be 6f 9d 6d be 26 6f bd be bd 18 51 be
       -0.25310883 -0.23204587 -0.36998862 -0.20419593
0000f0 04 d8 86 3d d5 48 d2 bd 30 9e 97 3e 22 b4 8f 3e
       0.065841705 -0.10267798 0.29612875 0.28067118

running_var f4 [64]
000000 ce ed fb 3c 9c 73 7b 3c 0d a6 e1 3b 3d 9f b7 3c
       0.030753043 0.015347388 0.00688625 0.022414798
000010 d3 58 0f 3b 6d 84 d8 3c 8b 5d d4 3b 09 ea 9d 3c
       0.0021873012 0.026430333 0.0064808778 0.019276636
000020 6d 51 d6 3b eb 9c 7b 3b 6e 07 7e 3b d0 37 aa 3b
       0.0065404684 0.003839309 0.0038761753 0.0051946416
000030 dc b1 da 3b 1f b7 84 3b 3b 99 61 3c 34 10 83 3b
       0.0066740345 0.00405015 0.013769443 0.0039997343
000040 29 f9 48 3b 11 e9 ac 3c e4 0f e3 3b 90 2b 3c 3c
       0.003066609 0.021107228 0.0069293845 0.0114849955
000050 51 a9 b5 3c 13 77 3c 3c d8 b1 07 3d ad 94 46 3c
       0.022175463 0.011502999 0.03312859 0.012120408
000060 2b 57 c6 3c 41 fa c7 3c ed b4 45 3c 05 be d3 3b
       0.024211487 0.024411323 0.012067062 0.006461861
000070 33 38 8b 3b ab 07 f1 3c 98 25 f4 3c aa a6 d8 3b
       0.004248643 0.029422602 0.029803082 0.006611665
000080 e9 d3 6e 3b 34 86 b2 3b 33 17 9d 3c bb 12 2c 3c
       0.0036442226 0.005448127 0.019176101 0.010502513
000090 05 ef 86 3b 1b cb a3 3b 1d ef 73 3c c7 46 bb 3c
       0.004117849 0.0049985773 0.014888552 0.022860898
0000a0 ce 5f a0 3b e4 ca e1 3b 03 db c4 3b 18 8d d7 3c
       0.0048942333 0.0068906415 0.0060075535 0.026312396
0000b0 e4 c4 db 3c 9d 92 1d 3c 3f ac e3 3c 61 0f 2e 3b
       0.026827283 0.009617475 0.027792094 0.002655946
0000c0 d8 e0 b2 3c 13 8d 87 3b d0 42 67 3c 2a c1 26 3c
       0.02183573 0.0041366904 0.01411505 0.01017789
0000d0 af 6c 31 3c a6 c9 6d 3b ab 8e 49 3c 39 63 dc 3c
       0.010829135 0.0036283522 0.012302081 0.026902782
0000e0 12 cb 56 3c 02 30 54 3c 66 e8 0a 3d 90 82 42 3c
       0.013109939 0.012950899 0.03391304 0.011871949
0000f0 ae 21 57 3b 55 39 af 3b 13 20 b7 3c 09 a6 c4 3c
       0.003282647 0.0053474107 0.022354161 0.024004953

weight f4 [64]
000000 93 ac 81 3f 96 36 7f 3f 08 cf 80 3f ff 53 7e 3f
       1.013079 0.99692667 1.0063181 0.9934692
000010 00 6e 7f 3f 41 09 81 3f 42 21 80 3f c6 9c 7e 3f
       0.9977722 1.0080949 1.001015 0.9945797
000020 be ea 7f 3f 10 06 7e 3f 4c e3 7e 3f f5 bd 7b 3f
       0.99967563 0.99228 0.9956558 0.98336726
000030 de 7b 81 3f 85 7e 7e 3f a9 03 80 3f 8a 90 80 3f
       1.0115926 0.99411803 1.0001117 1.004411
000040 32 4d 7d 3f b2 87 7f 3f 16 1e 7f 3f cf ac 80 3f
       0.98945916 0.9981643 0.9965528 1.0052737
000050 23 c8 80 3f 7b ba 81 3f 5e 23 81 3f fe b4 7e 3f
       1.0061077 1.0135034 1.0088918 0.9949492
000060 ee 06 80 3f 93 95 7f 3f 64 e2 7d 3f 19 f0 7e 3f
       1.0002115 0.9983761 0.9917357 0.9958511
000070 da ca 7e 3f 61 8c 81 3f 95 d9 7f 3f fc 0b 7e 3f
       0.99528277 1.0120965 0.9994138 0.99237037
000080 56 ff 7d 3f be e7 7f 3f f4 75 81 3f 17 fb 7f 3f
       0.99217737 0.99962986 1.0114121 0.9999251
000090 c3 24 80 3f 6e 79 80 3f 29 5d 80 3f 72 11 81 3f
       1.0011219 1.0037057 1.002843 1.0083449
0000a0 fb f0 80 3f c1 ce 80 3f 07 27 80 3f a6 7f 81 3f
       1.0073541 1.0063096 1.001191 1.011708
0000b0 4e b5 80 3f 63 e2 81 3f ac b5 7f 3f b7 f0 7e 3f
       1.005533 1.0147213 0.99886584 0.9958605
0000c0 e9 5a 81 3f 97 c3 7e 3f 82 db 80 3f ad 96 80 3f
       1.0105869 0.99517196 1.0066988 1.0045983
0000d0 47 5b 7d 3f 2b a0 80 3f 3f ca 80 3f 01 74 7f 3f
       0.98967403 1.0048879 1.0061721 0.9978638
0000e0 d9 4a 80 3f b7 08 80 3f 75 97 7f 3f 65 02 80 3f
       1.0022842 1.000266 0.9984048 1.0000731
0000f0 6d 8a 7e 3f 6d b2 7e 3f 7f b6 80 3f 6a 35 7e 3f
       0.9942997 0.99491006 1.0055693 0.99300253

bias f4 [64]
000000 a6 8c 63 3b e2 1e a5 3a 07 9d 11 bc 84 2d c7 bb
       0.0034721284 0.0012597705 -0.008887536 -0.006078424
000010 bd da 56 3b 67 0f ae 3b 28 92 e7 3b 81 f3 ba ba
       0.0032784187 0.0053118947 0.0070669837 -0.0014263244
000020 47 f6 2b 3c b8 65 f2 ba 7a fb bd 3b 9d 44 5c bc
       0.010495729 -0.0018493449 0.0057978006 -0.013444093
000030 d5 d5 e4 bb d7 52 1a 3b 13 30 03 3a 7c 58 19 3c
       -0.0069834986 0.0023547912 0.0005004417 0.009359475
000040 d4 e7 8d 3c 24 6c 91 3a 8d b0 af b8 f9 18 c9 3b
       0.017322458 0.001109485 -8.3775354e-05 0.00613701
000050 c8 7e a9 3b c8 5f 85 3b c7 9f c3 3b a0 1a 01 bb
       0.005172584 0.004070256 0.0059699747 -0.0019699708
000060 61 a2 04 3b ab 9b bb 3b 2c d4 ab ba d7 81 31 3c
       0.0020238387 0.005725344 -0.0013109497 0.010834179
000070 43 59 e5 bb 86 33 0a 3c fd 76 07 3a 60 48 36 bb
       -0.006999166 0.008435136 0.0005167572 -0.0027814135
000080 d6 c7 90 bb 66 be d4 3a 9c 92 46 3a 95 b0 48 3c
       -0.0044183536 0.001623106 0.0007574947 0.012249132
000090 78 dc 4a 36 44 1a 95 3b 7e c8 ba bb c7 56 cd bb
       3.0228675e-06 0.0045502502 -0.00570017 -0.006266448
0000a0 a8 28 e9 3b 58 6a 1f 3c 9e 41 1d 3c 4f 56 d2 3b
       0.0071154423 0.009729944 0.009598164 0.00641898
0000b0 6f 97 ef 3a 14 f0 2e 3c 7d dc 0e 3b ea a7 95 3b
       0.0018279384 0.010677356 0.0021798902 0.004567136
0000c0 7b 55 e7 ba 2a 7e 42 3a a9 0b c3 39 29 9a 0e 3a
       -0.0017649377 0.00074193126 0.00037201986 0.0005439842
0000d0 d2 b8 ef bb 1c 8e 2d 3c 52 1a dd 3b 0b ee 16 3b
       -0.0073157335 0.010592964 0.0067475224 0.0023030068
0000e0 37 5d bc 3b 39 9e 40 bb 8b 40 11 bb 9f d2 82 ba
       0.0057484168 -0.0029391183 -0.0022163715 -0.0009980983
0000f0 f1 0e 49 bb 0b a8 09 bc 82 29 9a 3a 88 38 18 bc
       -0.0030679072 -0.008401881 0.0011761638 -0.009290822

weight f4 [64, 64, 3, 3]
000000 d7 5f 88 bd b1 07 9c bc 33 10 d2 3c ab f7 2f bd
       -0.06658905 -0.019046636 0.02564249 -0.042960804
000010 99 76 39 3d a9 52 af bc 6d 6d 4a 3d bd 69 65 3b
       0.04527912 -0.02140172 0.049420763 0.0035005652
000020 d6 5b cd bb 99 71 41 3d 49 d5 31 3d 7d 54 66 3c
       -0.006267051 0.047227476 0.043416295 0.0140582295
000030 75 5b 71 bc f7 85 71 bd 56 c7 a6 bd 63 cc 4b 3d
       -0.014731278 -0.05896565 -0.08143489 0.049755465
000040 7d cd 9b bc ea 65 18 bd 15 e9 85 bd c1 2e 89 3b
       -0.019018883 -0.037206568 -0.065385975 0.0041864817
000050 a2 08 15 b7 16 da 16 bd b0 c0 a6 3b c1 26 da bd
       -8.883102e-06 -0.036829077 0.005088888 -0.10651923
000060 22 6c 4a 3d 13 d1 d4 3c 72 0f c2 bd 44 1c 14 3d
       0.04941953 0.0259786 -0.09475602 0.03615977
000070 b0 5e 1e bc e9 fa 05 3c 76 0d 24 ba 67 3d 3b bd
       -0.00966613 0.008177497 -0.00062581094 -0.045712855
000080 56 64 a8 bc 8d 31 10 3c 12 ad c6 bc fe 41 89 bc
       -0.020555656 0.008800876 -0.024252448 -0.0167551
000090 11 c8 85 3c 72 fb 78 bc 40 9b e8 3d e2 96 cd bc
       0.01633075 -0.015196668 0.113577366 -0.02509636
0000a0 7e e6 eb bb ec 58 11 bd 40 67 78 3c ee 5f 18 bd
       -0.0071991077 -0.035485193 0.0151613355 -0.03720086
0000b0 85 49 d5 3c 88 f9 28 3c e5 58 a6 bc 4f 3b e3 3b
       0.026036033 0.010313399 -0.02030606 0.0069345604
0000c0 ac 52 a7 3b e3 89 b8 bc 5d f2 2b 3c 81 35 cd 3b
       0.005106291 -0.022526687 0.010494796 0.0062624817
0000d0 d4 90 e8 ba b6 fc 57 bb e0 b1 32 bc 8a 42 af 3c
       -0.0017743357 -0.0032957024 -0.0109066665 0.021394033
0000e0 3b fa fb bc c6 a9 85 3c cd a0 a3 bb 02 a3 4a bd
       -0.030758968 0.016316306 -0.004993534 -0.049471863
0000f0 8a 8f 80 bd 48 f5 2c bc ba a1 29 3d a4 69 af 3c
       -0.06277378 -0.0105565265 0.041414 0.021412678
000100 6c cd 53 3b c5 b2 27 bd 67 cf 36 3c e8 45 fa 3c
       0.0032318486 -0.040941972 0.011157847 0.030550912
000110 d7 b6 b5 3d 35 97 1e 3c b6 94 10 3c 33 25 8f 3d
       0.088727646 0.009679605 0.008824518 0.06989517
000120 3e 4f a4 3c 71 ee e3 3c f4 30 9d bd d9 1e bf bc
       0.020057317 0.027823659 -0.07675353 -0.023330139
000130 a3 fc d0 bc 68 90 4b 3d d8 d5 7d bc 68 c5 ea 3c
       -0.025511092 0.049698263 -0.015492879 0.028658584
000140 bb ca 2c 3d 4d 73 d3 3c 7f 27 c9 bd f9 9a 56 bd
       0.042185526 0.025811816 -0.098219864 -0.052393887
000150 e9 57 d2 bc 0c 14 8d bc 77 1b c4 bc 17 dd 3c 3d
       -0.025676684 -0.017221473 -0.023938878 0.046109285
000160 8f 60 9d bc a3 b3 95 bb 9c 17 9d 3c 6e 60 0e bd
       -0.019211082 -0.0045685335 0.019176297 -0.03475993
000170 4b d4 26 3d 12 d3 70 3c 94 9d 3a bd 40 00 4c 3c
       0.040729802 0.014698761 -0.045560434 0.0124512315
000180 ff fb fb 3c 5b 44 a7 3c f3 95 46 bd 8c fe 52 ba
       0.03075981 0.020418337 -0.048482846 -0.00080487947
000190 a9 61 c0 3b 86 f1 21 bc 85 7d 7d bd 55 ae 0e bd
       0.005871017 -0.009884244 -0.061887283 -0.034834225
0001a0 7e 89 32 3c 29 d9 6a bd b3 d8 3f bb d5 17 dc 3b
       0.0108970385 -0.057336006 -0.002927345 0.006716708
0001b0 91 74 8d bd 43 f2 49 3d 94 90 57 3d 62 0f e7 bb
       -0.06906999 0.049303304 0.052628115 -0.0070513943
0001c0 fe 70 d9 3c b4 d1 98 bc 88 2d 45 bd 4b de cf 3b
       0.026543137 -0.018654682 -0.048139125 0.006343638
0001d0 a0 16 b4 bc d2 2d cf 3c 04 39 f8 3c 90 d5 93 3b
       -0.021983445 0.025290404 0.030300625 0.0045115426
0001e0 b8 07 52 3b cd 86 d3 bc f7 48 28 3d 49 e3 3c ba
       0.0032048058 -0.025821114 0.04108521 -0.0007205499
0001f0 17 96 bd 3b 93 8c eb bc af c4 32 bc 02 d9 35 bd
       0.0057857144 -0.028753554 -0.010911151 -0.044396408
000200 ca 05 c4 3c 8c 22 c8 3c a2 22 9c 3d 49 a1 d4 3b
       0.023928542 0.024430536 0.07623793 0.0064889533
000210 e9 bf 20 3d f8 d2 a2 3c 95 c1 a3 3c c4 10 73 bd
       0.03924552 0.019875988 0.019989768 -0.05934216
000220 89 05 03 bc d7 f4 63 bc 7a e6 23 bd e2 af 18 bd
       -0.007996925 -0.013913355 -0.04001472 -0.03727711
000230 d7 87 a2 bd 19 43 d8 bb 98 6f 08 be f7 ab ca bc
       -0.07936066 -0.0065997955 -0.1332382 -0.024740202
000240 75 82 b6 bb d8 01 61 3d e6 36 f0 bb 57 d0 f5 3c
       -0.005569751 0.0549334 -0.007330763 0.03000657
000250 80 9e d4 3b c6 da 66 3d e2 30 46 bb df a6 72 3d
       0.0064886212 0.056360982 -0.0030241539 0.059241172
000260 b9 1a 41 bd 26 9b 91 bc e5 77 b9 3b cb 05 0c bd
       -0.047144625 -0.017774176 0.0056600445 -0.034185212
000270 46 c1 2c bb f6 df 43 ba 39 b6 9c 3c f5 00 84 bd
       -0.0026360317 -0.00074720324 0.01912986 -0.06445495
000280 c0 87 2f 3d cb 9b 17 3c e0 4e 9e 3c 44 ba 62 bd
       0.04285407 0.0092534525 0.01932472 -0.055353418
000290 5d 19 f1 3b 56 93 a7 bd da 0c 89 bc 55 54 37 3d
       0.00735776 -0.08182399 -0.01672976 0.04475816
0002a0 4c 58 48 3c 84 0f a7 bc a0 f3 2c 3b c2 0f 9f bc
       0.012228083 -0.02039314 0.002639033 -0.019416694
0002b0 84 f2 a4 bc e7 a7 b4 bd 4f c3 b0 3a 0f 75 04 bd
       -0.020135172 -0.08821087 0.0013485941 -0.0323382
0002c0 11 5e 48 3d 1b b3 34 bd e0 1a a5 bd 66 bf fa bd
       0.048917834 -0.04411612 -0.080617666 -0.122435376
0002d0 f2 db 79 3c 75 3c 48 3d c1 24 79 ba e0 d5 e9 3c
       0.015250193 0.04888578 -0.0009504073 0.028544366
0002e0 4f ac 2e bd d1 99 64 3d 80 bb 43 3c 66 fb 45 bb
       -0.042644795 0.055810753 0.011946559 -0.003020966
0002f0 7f f1 43 3d 4d 4f a1 3c be 62 2e 3d b1 dd 01 3c
       0.04783773 0.019691134 0.042574637 0.0079263905
000300 67 5f 67 3d fe 44 4d 3c b9 98 0a bd ff 5f c4 3d
       0.056487467 0.012528656 -0.033837054 0.09588622
000310 1d fc 04 bd f6 be e3 bc 76 80 26 bd fc dd 6b 3c
       -0.032466996 -0.027801018 -0.040649854 0.014396187
000320 ab f7 d8 bd 99 dd 1c 3d ea 9b 63 bd c8 47 56 bb
       -0.10594114 0.03829727 -0.055568613 -0.0032696594
000330 8f cb 46 3c ae 7c 16 bd 02 16 09 3d b3 00 53 bd
       0.012133493 -0.036739998 0.033468254 -0.05151434
000340 80 35 a0 bd 2a 47 9b 3c 76 e0 7d bc 73 f2 a1 3c
       -0.07822704 0.018954832 -0.01549541 0.01976893
000350 c4 2d 09 bd fb 0c c2 3c a8 a4 32 3b eb 52 b2 3d
       -0.03349091 0.02368783 0.0027258787 0.087072216
000360 dd 6c 40 bc 8a c9 8c 3d 73 ab 9c bc 80 41 a3 bd
       -0.011744705 0.06874378 -0.019124722 -0.079714775
000370 89 43 28 3d 28 ee 01 bd 41 85 6b 3d 34 34 9c bd
       0.04108003 -0.031721264 0.057500128 -0.076271445
000380 ca df 44 3c 5d 21 3a 3d b8 49 48 3d 90 1f a8 ba
       0.012016246 0.045441974 0.04889843 -0.0012826789
000390 f0 96 0e bd bf 83 6a bd 8c 93 a4 bc 63 57 8a 3b
       -0.034811914 -0.05725455 -0.020089887 0.004221843
0003a0 f1 e6 81 3c 6a f3 d2 bc 6d 7c 6a bd 44 51 27 3c
       0.015857192 -0.025750834 -0.057247568 0.010212246
0003b0 d7 5b 71 bd 30 8d 4f bd 63 e3 38 3d 70 ac 2e bc
       -0.058925476 -0.050671756 0.045138728 -0.0106612295
0003c0 29 67 d1 3c c5 9d 46 bd 4f a6 ad 3b 75 3e c8 3b
       0.025561886 -0.048490304 0.0052993665 0.006110961
0003d0 2c f9 cc bc 7e f1 14 3c 27 2c 85 3d ff 62 90 3c
       -0.025021158 0.009090779 0.06502562 0.01762533
0003e0 16 2b a8 bd 8f 71 6e 3c d2 7f 3a bc 27 67 10 bd
       -0.08211343 0.014553442 -0.011383014 -0.035254624
0003f0 f4 da 7f bc 8c a1 e8 3c 78 ff 6d 3d 6c c9 33 3c
       -0.015616167 0.028397344 0.058104962 0.010973316

running_mean f4 [64]
000000 2b 46 2d bf 03 d7 14 3f e6 e7 01 bf 3f ad fb be
       -0.6768519 0.5814058 -0.50744474 -0.49155614
000010 12 4b 34 bf 7a 27 4a bf 69 9f 24 bf 3b 6f 1c 3f
       -0.7042705 -0.78966486 -0.6430574 0.61107224
000020 14 e3 a5 bf c7 bf 2b 3f fe 54 f1 bc 8a 5e 45 bf
       -1.2959924 0.67089504 -0.029459473 -0.7709738
000030 08 8a fb be fd 94 02 bf a7 c3 ac be 70 c8 7b 3e
       -0.49128747 -0.5100859 -0.3374302 0.2458818
000040 50 13 8f be 61 c9 a4 3e 05 eb b6 3f 95 fe 00 bf
       -0.27944422 0.3218489 1.4290472 -0.5038846
000050 13 2b 9d bf dc bc 82 bf 96 c6 66 3f 99 c1 8b 3f
       -1.227877 -1.0213885 0.9014677 1.0918456
000060 ed ed 37 3d c3 ef 96 be 4d fd e8 bf 07 5a 62 3f
       0.044904638 -0.294798 -1.8202301 0.8841862
000070 6c 51 a4 3f 1a 1a c6 be 94 11 dd bd 73 46 04 3e
       1.2837348 -0.3869179 -0.107943684 0.12917499
000080 f3 e4 ab 3e c2 e2 59 3f 36 0b 32 3f 7d fb c0 3e
       0.33573112 0.8511163 0.69548357 0.3769187
000090 f3 3b 5b bf 99 3a 97 bf ba e7 cc 3e 28 93 66 3e
       -0.8563835 -1.1814758 0.40020543 0.22517073
0000a0 ae 01 a4 3e ac e0 a2 3f b8 35 ac 3d fc c9 13 bf
       0.32032531 1.2724814 0.084086835 -0.5773008
0000b0 22 7d a4 bf c3 6e 4e 3f 49 4e cf 3c c4 96 1d bf
       -1.2850688 0.8063776 0.025305884 -0.61558175
0000c0 55 9a ec 3e ce 51 f5 3e 57 b6 20 3f c7 f6 13 bf
       0.46211496 0.47913975 0.6277823 -0.5779843
0000d0 6c 52 9c bf 91 63 13 3f b8 f2 7f 3c 7a c2 b2 3f
       -1.2212653 0.575738 0.0156218335 1.39656
0000e0 b4 4b c0 be b9 84 2f bf 14 45 e6 be 45 54 f5 be
       -0.37557757 -0.68561894 -0.44974577 -0.47915855
0000f0 25 8c 5f be c3 7d 01 3f 95 b2 ab be 00 0c b9 3f
       -0.21830805 0.5058252 -0.33534685 1.4456787

running_var f4 [64]
000000 42 4f cb 3f ae fb 1f 40 cb d5 f2 3e 1a 6a 68 3f
       1.5883563 2.4997363 0.47428736 0.907869
000010 bd f3 72 3f 4a c9 d9 3f 5e 1c ec 3e 95 53 a2 3f
       0.94903165 1.7014554 0.46115392 1.2681757
000020 05 11 09 3f 6e 83 4b 3f d6 33 50 3f aa 54 82 3f
       0.53541595 0.7949742 0.81329095 1.0182087
000030 92 51 95 3f a0 14 61 3f eb 1b 1d 3f d4 43 2e 40
       1.1665518 0.87922096 0.61370724 2.72289
000040 f2 af 4b 3f c3 33 bb 3f 7e 15 3d 3f 8c c5 f6 3e
       0.79565346 1.4625171 0.7386092 0.4819759
000050 11 1e 45 3f 43 46 39 3f 46 0c ef 3e 57 78 69 3f
       0.76999 0.72372836 0.4668905 0.9119925
000060 6b 25 d2 3e 2f 1d 38 3f 1c b7 fe 3f e1 91 a1 3f
       0.41044173 0.7191953 1.989963 1.2622644
000070 c7 a6 34 3f 6a 23 b4 3f 12 3d 2d 40 10 e6 10 40
       0.7056698 1.4073308 2.7068524 2.264042
000080 2e d0 a8 3f 5e 7b e9 3e c2 5d f5 3e c8 b9 29 40
       1.3188531 0.45601934 0.47923094 2.6519642
000090 e5 26 a9 3f 99 3b 67 3f 51 02 88 3f ed 7b 2d 3f
       1.3214995 0.90325314 1.0625707 0.6776722
0000a0 32 cf b5 3f 4f b7 b0 3f 0f 4a 97 3f b3 1d 19 3f
       1.4203856 1.3805941 1.1819476 0.5981094
0000b0 03 8c 73 3f 7a 89 53 3f e8 2e 3f 3f 37 05 01 3f
       0.95135516 0.8263165 0.7468095 0.5039858
0000c0 8a f9 25 3f 8a 72 63 3f 4c a8 94 3f bd 3b 5c 3f
       0.6483389 0.8884665 1.161386 0.86028653
0000d0 3d eb 2e 40 e9 d7 a3 3f b5 6c 19 3f 2e f0 41 3f
       2.7331078 1.2800266 0.599315 0.7575711
0000e0 07 ce e7 3f 1b c8 08 3f fb 6e 76 3f 63 ca 88 3f
       1.810975 0.53430337 0.9626309 1.0686764
0000f0 fe 27 ce 3f fa cb 8e 3f 73 9b 20 3f 28 99 4f 3f
       1.6105955 1.1155999 0.62737197 0.8109307

weight f4 [64]
000000 e5 e2 7f 3f ed 4a 81 3f 40 15 81 3f 40 75 7d 3f
       0.9995559 1.010099 1.008461 0.99007034
000010 58 48 80 3f 58 fc 7d 3f a6 8e 7e 3f b8 b8 80 3f
       1.0022078 0.9921317 0.99436414 1.0056372
000020 e6 3c 7e 3f f7 1e 81 3f 20 bb 80 3f 30 02 81 3f
       0.99311674 1.0087575 1.0057106 1.0078793
000030 5e 4a 81 3f 2e 64 80 3f f5 41 7f 3f 94 98 80 3f
       1.010082 1.0030572 0.9971002 1.0046563
000040 00 f5 7f 3f e1 6d 7e 3f a4 7c 81 3f c5 d1 7f 3f
       0.99983215 0.9938641 1.0116162 0.9992946
000050 b5 7e 80 3f d6 10 7f 3f c3 40 7e 3f 78 03 81 3f
       1.0038668 0.99635065 0.9931757 1.0079184
000060 0a 8a 7c 3f 8f bd 80 3f cd b3 80 3f 79 75 81 3f
       0.9864813 1.0057849 1.0054871 1.0113975
000070 07 c2 81 3f 6f 28 7d 3f fd 76 7f 3f a3 48 7e 3f
       1.0137337 0.9888982 0.99790937 0.99329585
000080 a2 31 81 3f a4 d4 7f 3f d2 61 80 3f fb 58 81 3f
       1.0093272 0.9993384 1.0029852 1.010528
000090 27 6a 80 3f f4 7b 7c 3f 58 f5 80 3f 97 2f 80 3f
       1.0032395 0.9862664 1.0074873 1.0014523
0000a0 5e bd 80 3f 9f ff 80 3f 07 84 80 3f 17 46 7c 3f
       1.005779 1.0078009 1.0040292 0.9854445
0000b0 ae 70 7e 3f b9 a4 7e 3f 9f 08 80 3f 36 28 80 3f
       0.99390686 0.99470097 1.0002631 1.0012271
0000c0 8c 94 80 3f 4b 1e 80 3f b8 5a 7f 3f 98 79 80 3f
       1.0045333 1.0009245 0.997478 1.0037107
0000d0 2e 5a 7d 3f e8 0f 81 3f 1f 10 7e 3f 3d 96 81 3f
       0.9896573 1.0082979 0.9924335 1.0123974
0000e0 03 9b 80 3f 84 80 7e 3f 9e 2c 7f 3f 21 29 7f 3f
       1.0047306 0.9941485 0.99677455 0.9967213
0000f0 21 b5 7e 3f 80 1d 81 3f 44 73 7f 3f 7e 46 81 3f
       0.9949513 1.0087128 0.99785256 1.0099638

bias f4 [64]
000000 56 8f de 3b 95 a2 92 3b c8 ef be 3b b7 57 9e ba
       0.0067919893 0.0044749477 0.005826924 -0.0012080584
000010 90 7e a3 3b 69 e9 f3 bb e0 3f 4e bb 67 25 40 3b
       0.0049894527 -0.007443596 -0.0031471178 0.0029319169
000020 e6 e6 47 bb f2 ac bc 3b 51 63 13 3c ed 4a 66 3c
       -0.0030502616 0.0057579214 0.008995847 0.01405595
000030 d6 b6 0f 3c 40 4c c5 3b b7 10 43 3b b7 52 9f 3b
       0.008771619 0.0060210526 0.0029764601 0.0048621553
000040 91 2c 86 3c 6c 9b 31 bc 01 b3 15 3c ea 0e c9 3b
       0.016378673 -0.010840278 0.009136916 0.006135811
000050 72 92 52 3c fb 26 73 bb a1 ec d1 bb d5 83 77 bb
       0.012852298 -0.0037102092 -0.006406382 -0.0037767787
000060 45 07 12 3a 4f 2e 0e 3b ef aa 0a 3c ef 92 9a 3b
       0.0005570541 0.0021695083 0.008463605 0.004717223
000070 4f ed 7a 3b 92 26 0e bc cb a2 a4 3b 43 53 a5 bb
       0.003828842 -0.008676188 0.0050242892 -0.005045326
000080 2c 48 fc 3b 0c 0d a9 bb f0 6f 00 3a e3 93 2c 3b
       0.0076990332 -0.005159026 0.00048994925 0.0026333265
000090 ae 85 d2 3b 23 20 26 bb 96 0a cf 39 3f 25 dd 3b
       0.0064246273 -0.0025348745 0.00039490004 0.006748825
0000a0 a2 78 d3 3b bf ad a7 39 e3 2a 8d 3b 75 5b 9f bb
       0.0064535895 0.00031982173 0.004308091 -0.0048631974
0000b0 84 fb dc b8 24 5c 06 bc 5b ec 15 3b cb f8 95 3b
       -0.00010537266 -0.008200679 0.0022876475 0.0045767776
0000c0 db cf 0c 3c 2f 70 29 3b 9d f4 81 bb e0 96 ad 3b
       0.0085944785 0.002585422 -0.0039659278 0.0052975267
0000d0 3e 85 14 bb c9 2a 29 3b 7b 77 46 bb e6 20 1e 3c
       -0.0022662426 0.0025812855 -0.0030283618 0.009651398
0000e0 83 9b a2 3b c0 85 ab bb 2c 6c 43 bb db a4 c0 3b
       0.004962386 -0.00523445 -0.0029819114 0.0058790273
0000f0 e4 6c e7 ba 92 8f 85 3b c1 c3 ce 39 ac 92 b6 bb
       -0.0017656353 0.004075953 0.0003943723 -0.005571684

weight f4 [64, 64, 3, 3]
000000 73 0d 21 3d 60 f4 d2 3c 77 07 54 bc 03 88 0d bd
       0.039319467 0.025751293 -0.012941233 -0.03455354
000010 64 a7 d5 bb 60 72 80 3b 08 f0 45 3d f5 b6 72 bd
       -0.0065201987 0.0039198846 0.048324615 -0.059256513
000020 ff 37 c4 3c a3 1f 44 3c fa ae a0 bb 3e c9 ea bc
       0.023952482 0.011970433 -0.0049036713 -0.028660413
000030 3c 1a d1 3c 7f 2a c7 3b 2c 46 55 ba 6f 99 27 bc
       0.025525205 0.006078064 -0.00081357616 -0.0102294525
000040 d9 fc 3b 3d dd 68 28 bc 83 a4 65 bb a9 5d 67 3d
       0.04589543 -0.010278908 -0.0035040684 0.056485806
000050 20 da 3b 3d 77 c1 60 3c 8b 7a 12 bd 12 38 71 bc
       0.045862317 0.013718001 -0.035761397 -0.014722841
000060 cf c9 a9 ba bf 0c ff 3c 2a 35 4c bd 33 d2 2e bd
       -0.001295382 0.031134007 -0.04985539 -0.04268093
000070 f2 9f 09 bd 8a ec 3d 3b e7 7f 5f bd 93 85 40 3d
       -0.0335998 0.00289801 -0.054565337 0.047002386
000080 3a 80 fa bc 2b 22 08 bd 9c ed 9d bd 06 14 67 bd
       -0.030578721 -0.03323571 -0.07711336 -0.05641558
000090 74 c8 af bc 1e b3 fa 3c da 68 eb bc 81 90 2f bc
       -0.021457888 0.030602988 -0.02873652 -0.010715605
0000a0 37 c1 13 3d 6a dc 0a bd 6d eb 41 bd 37 56 56 bc
       0.036072936 -0.03390161 -0.04734366 -0.013082079
0000b0 09 d7 68 3d 08 6d 13 bb 76 8d 3b 3d cb bf a8 3c
       0.0568457 -0.0022495408 0.045789205 0.020599267
0000c0 00 3b 50 3d 04 94 d3 bd 01 06 1d bb bc 40 ed bb
       0.050837517 -0.10330966 -0.0023959877 -0.007240383
0000d0 3e 2b 2e bd 66 ed e9 3c 31 a3 82 3d 08 96 22 bd
       -0.042521708 0.028555583 0.063787825 -0.039693862
0000e0 20 3e b8 3d bb f5 6a bd 1f 98 08 3c af 8b 1e bc
       0.089962244 -0.057363253 0.00833705 -0.009676858
0000f0 c0 cf cc bc 48 45 3b bd 4b fe 06 bb b3 ab ad 3d
       -0.025001407 -0.04572037 -0.0020598348 0.08480015
000100 1b 23 04 3d eb 79 92 3c 8d 52 8b 3c f6 cc b9 3c
       0.03226004 0.0178804 0.017007137 0.02268074
000110 52 15 af bc b9 07 c4 bc ef 78 21 bd c1 21 0f 3c
       -0.021372471 -0.023929464 -0.039421972 0.008736075
000120 7b 8f 1a 3d 4d 63 d7 3d 31 c6 b5 3c 5f 64 80 3d
       0.03773449 0.10516987 0.022189232 0.06269144
000130 7f 35 9d bc f8 78 22 3d 26 f6 38 3c 8d 70 35 3d
       -0.019190548 0.039666146 0.011289155 0.04429679
000140 79 9f 26 bc af 13 4c 3d 76 31 a8 bb 51 c8 64 3d
       -0.010169857 0.04982346 -0.0051328493 0.0558551
000150 c3 0f 6b 3d 22 31 88 bd 53 b0 08 bd 0c b2 ce 3d
       0.05738808 -0.06649996 -0.03337128 0.100925535
000160 2f 90 99 bd 54 91 17 3c 21 9f 92 3d a7 30 a1 bd
       -0.07498204 0.0092509575 0.07159258 -0.07870608
000170 79 23 b6 3d 2e 1e cd 3c 08 b7 96 bd a3 c4 f1 3c
       0.088934846 0.025038805 -0.07359129 0.029512709
000180 22 4a 46 3c 4b 7b f8 bc af 52 1b 3d b3 92 1b 3d
       0.012102636 -0.030332228 0.03792065 0.0379817
000190 1a 3a e4 3c 2a f7 1c 3d ea d4 d9 bd cd ce f5 3c
       0.027859736 0.03832165 -0.10636313 0.030005837
0001a0 f1 1b 82 bb 86 da ae 3b 43 bd ce bc f4 79 70 bc
       -0.003970616 0.0053361086 -0.025236731 -0.014677513
0001b0 4e 47 20 3c 3f c9 14 3c 96 b5 f1 3d 54 73 48 3d
       0.009782625 0.009081184 0.11802213 0.04893811
0001c0 07 3f 13 3c bf 75 0b 3c 7a 09 b7 bc 9d 9a 1c bd
       0.008987195 0.00851196 -0.022343386 -0.03823339
0001d0 42 90 bc 3c 7a 89 3f 3b a0 0d e1 bb 82 78 09 bd
       0.023018006 0.002922623 -0.0068680793 -0.03356219
0001e0 13 c1 1f 3d 95 af 84 bc 56 17 1d bd fd 50 82 3b
       0.03900249 -0.016197005 -0.038352333 0.0039769397
0001f0 d8 12 b9 3b 4d d5 c4 bc 17 95 09 bd 86 aa 39 bc
       0.0056479983 -0.024027491 -0.03358945 -0.01133216
000200 17 06 9a bd 20 f2 95 bc 25 81 fe 3b 4f 46 19 3b
       -0.07520693 -0.01830393 0.00776686 0.0023387854
000210 72 8e 06 3a bf 5d 2c bb 62 cd 03 bd 7c 56 d6 ba
       0.00051329203 -0.0026300994 -0.03217829 -0.0016352679
000220 57 33 b1 bc 37 d9 17 3d 90 fd cb bd b8 15 47 3c
       -0.021630926 0.037072387 -0.099604726 0.012151174
000230 64 d9 8e bc 2c ad a5 3d 02 b9 45 3d 00 aa 23 bd
       -0.017437644 0.080896705 0.04827214 -0.039957047
000240 c5 7a b3 3d a7 a5 2f 3d f9 97 b9 3c 50 62 bd 3d
       0.08763651 0.042882588 0.022655474 0.09247267
000250 3d 96 f7 bb 2a 0f 26 3e f0 9e fb bc 25 f1 05 3a
       -0.0075557516 0.16216722 -0.030715436 0.00051094807
000260 34 65 99 3d a7 bb 1d bd bd c5 3e 3d e2 40 60 bb
       0.07490006 -0.038509037 0.046575297 -0.003421836
000270 ff 0b 6e 3d 42 1c b2 3a 83 c1 a7 bc 17 81 92 3d
       0.05811691 0.0013588744 -0.020478016 0.07153528
000280 90 05 8d 3d 1d 4a 6d 3c d2 ce 33 3d bf 0a d7 3c
       0.068858266 0.014483002 0.04389841 0.026250241
000290 e4 3e 13 3b 71 6e 64 bc 14 3b 8d bd 55 ac 9c 3c
       0.0022467906 -0.013942347 -0.06896034 0.019125143
0002a0 a8 d9 ea bc ec 9d 9f 3c 63 bd f4 bc 5d 7f e4 3c
       -0.02866824 0.019484483 -0.029875463 0.027892763
0002b0 75 70 4b 3d 41 7f 3d 3c 10 76 d2 3c 3e 0a 1d 3d
       0.049667794 0.011565984 0.025691062 0.038339846
0002c0 17 14 5e 3d ab 54 5c bd 41 0b 64 bb ff f5 d7 bc
       0.054218378 -0.053791683 -0.0034796747 -0.026362417
0002d0 62 23 9e 3c 91 78 99 3c af e2 16 3d b8 81 1e 3c
       0.019303981 0.018734248 0.036837276 0.009674482
0002e0 f7 98 89 bc ec 12 4f 3c 5b c9 69 bc a7 36 1a 3d
       -0.016796572 0.012638789 -0.014269198 0.037649777
0002f0 0a e9 86 3c a2 52 6e 3c b6 b0 42 3d 54 aa 15 be
       0.016468544 0.014546068 0.047531806 -0.14615756
000300 ec 82 41 bc ff 53 8a bd 5f 92 f0 3c cb 68 f3 3c
       -0.011810999 -0.06754302 0.02936667 0.029713055
000310 a7 07 4c bd 6e 04 95 3d f4 aa b2 bd 07 26 af 3b
       -0.049811985 0.072762355 -0.08724013 0.0053451094
000320 77 12 1f 3c 0b 1d f1 ba 20 1d 76 bd 02 19 f2 ba
       0.009708992 -0.0018395496 -0.06008637 -0.0018470588
000330 85 ee a3 3c 21 4c 60 bc 6b 7a d7 3c 4f 77 98 3c
       0.020011196 -0.013690026 0.02630349 0.018611578
000340 db fd f6 b8 d8 ca 17 bd 7f 71 cb 3c 11 dd 79 3c
       -0.00011777478 -0.03705868 0.024834393 0.01525046
000350 7a a0 0f 3d 33 44 0f 3d 4b 1a ac bc 3d 35 e6 bc
       0.03506515 0.03497715 -0.021008631 -0.028101558
000360 78 b0 cb bc 5b 63 85 bc f3 7d 1f bd dd b4 21 3d
       -0.02486442 -0.016282728 -0.038938474 0.039479125
000370 f4 4b 1e bd f4 db 1c bd 90 ff d4 bc 98 be 07 3d
       -0.038646653 -0.0382957 -0.026000768 0.03314075
000380 b2 62 98 3d d6 cd 7f 3b 2e 17 62 3c 49 63 7a 3c
       0.074407 0.00390326 0.013799472 0.0152824605
000390 6b a3 3e bc 01 07 7f 3d bb 80 04 bd 4d fc da bc
       -0.011635642 0.06226254 -0.03234933 -0.026731635
0003a0 95 48 f7 3b b4 83 ab 3c 0f cf 7c bc 14 cf a7 3c
       0.0075464942 0.020936824 -0.015430226 0.020484485
0003b0 c1 ce c8 bc 69 12 f1 3b 73 41 b5 3d da ab 05 3d
       -0.02451265 0.007356931 0.08850374 0.032634594
0003c0 34 8b b2 bc 7a 2a 8b 3d 78 fc 4e 3d 91 66 20 bd
       -0.021794893 0.06795211 0.05053374 -0.039160315
0003d0 1f f3 21 3d ba 91 2c bc 7d 2e 53 bc c1 b6 18 bd
       0.0395385 -0.010532791 -0.012889502 -0.037283663
0003e0 cf 4c 83 3c 22 ee d8 bc 19 16 5e ba 50 75 77 bb
       0.016027836 -0.026480738 -0.0008471921 -0.0037759133
0003f0 93 aa 12 bc d1 72 cd bc 5a b6 68 3d 07 b4 c2 bc
       -0.008951801 -0.025079163 0.05681453 -0.023767484

running_mean f4 [64]
000000 00 d9 13 3f fb c9 c6 be d7 6b 25 bf 6b 79 19 be
       0.5775299 -0.38825974 -0.64617676 -0.14987724
000010 f8 1f ee 3d 74 5b 8d 3f b2 b2 53 3e 7b df 13 be
       0.11627191 1.1043534 0.20673636 -0.1444072
000020 71 a4 f4 bd 8c b6 c1 3e e7 72 09 bf c5 e0 39 3f
       -0.11945427 0.37834585 -0.5369095 0.72608596
000030 11 ec 01 be 66 d6 8d 3e 99 95 d4 bc 9b 28 fc 3e
       -0.12687708 0.27702636 -0.02595024 0.4924973
000040 17 f3 06 be b3 44 2b 3d 7d cd ed be c1 ea ee 3e
       -0.13178669 0.041813564 -0.46445838 0.46663478
000050 e2 48 c3 3e d4 92 6c 3f 3a 8c 4c bf 98 3b 29 3f
       0.38141543 0.9241154 -0.7990147 0.6610656
000060 65 36 5c bf a5 27 57 3f 10 c1 81 3e ce ad bd be
       -0.860205 0.8404487 0.25342607 -0.37046665
000070 fa 1e 43 3f f4 83 e0 3e 38 85 63 3f 1d 91 41 3f
       0.7621914 0.43850672 0.8887515 0.7561205
000080 75 43 5d bf 2a ea 1b bf c8 d9 40 bf 0d fe 3f bf
       -0.86431056 -0.6090418 -0.7533231 -0.74997026
000090 48 ad 8d 3e 58 c6 91 be de 3a cf be 94 5c 4d bf
       0.27671266 -0.28471637 -0.404746 -0.8021939
0000a0 bb a4 89 be 78 79 51 bf 2f 92 cd be 9b 2a 8d bd
       -0.26883492 -0.8182597 -0.40150592 -0.06892892
0000b0 b1 7c 87 bd 86 67 43 3e 74 aa 54 3e af 53 98 be
       -0.0661558 0.1908246 0.20768148 -0.29751346
0000c0 66 91 8b bf 41 6e 14 bf 5e 7c 01 3f de 3b 91 be
       -1.0903747 -0.57980734 0.50580394 -0.28365988
0000d0 53 a6 88 be a9 9b 0c be 88 2a ff 3e 2a 27 d6 be
       -0.26689395 -0.13731255 0.49837136 -0.41826755
0000e0 d2 4c ba 3e 0d e1 3f bf 40 35 fa 3e b2 e9 8b 3f
       0.36386734 -0.74952775 0.48868752 1.0930693
0000f0 05 11 d8 3e e4 a3 fa bc bb 28 0e bf 75 65 00 3f
       0.42200485 -0.030595727 -0.555309 0.5015481

running_var f4 [64]
000000 ec 98 b5 3f 4d eb 25 3f 63 b2 a9 3f 65 08 75 3f
       1.4187293 0.64812165 1.3257564 0.95715934
000010 9b d3 9c 3f b1 34 80 3f 08 13 f8 3f fc 16 30 40
       1.2252077 1.001608 1.9380808 2.7514029
000020 68 1b 88 3f c3 b0 1f 3f c5 66 4e 3f 58 d6 c0 3f
       1.0633364 0.6237909 0.80625564 1.5065413
000030 d9 40 42 3f 97 1e 1b 40 53 3b c0 3f c7 63 36 40
       0.758802 2.423742 1.5018104 2.84984
000040 9a 26 25 3f 2d a9 b3 3f 50 58 ed 3f b2 46 d5 3f
       0.64512026 1.4036003 1.8542576 1.66622
000050 34 6b 4a 3f 92 31 f5 3f b4 b5 d0 3f 2b 57 09 40
       0.7906983 1.9155753 1.6305451 2.1459453
000060 5b 85 5e 3f 6f 96 cd 3f c4 f1 58 3f 5f 7d 20 3f
       0.86922234 1.6061534 0.84743905 0.626913
000070 52 5f ac 3f 83 7b 12 40 70 62 de 3f cc da 7f 3f
       1.346659 2.2887886 1.7373791 0.9994323
000080 7b 14 89 3f 93 d5 75 3f 05 1c c6 3f 2d 1c be 3f
       1.0709375 0.96029013 1.5477301 1.4852349
000090 24 ca d1 3f 09 58 80 3f e7 3d 0c 40 e7 00 5b 40
       1.6389813 1.0026866 2.1912782 3.42193
0000a0 4e 81 64 3f ea 79 f7 3f 49 a5 ce 3f 2c 0f c1 3f
       0.89259803 1.933408 1.6144191 1.5082755
0000b0 02 c3 cc 3f ea 57 ee 3e c2 c8 15 40 74 d1 ca 3f
       1.5997012 0.46551448 2.3403783 1.584517
0000c0 97 d6 ff 3f d0 2d e5 3f 40 08 cd 3f ef 98 3a 3f
       1.9987363 1.7904606 1.6018143 0.7288961
0000d0 3d 95 3f 3f 68 ba 8e 3f d4 90 ca 3f 3f 88 f8 3f
       0.74837095 1.1150637 1.5825448 1.9416579
0000e0 b8 c1 18 40 e8 a4 2f 40 7b cb 91 3f 1c 14 78 3f
       2.3868237 2.74444 1.1390222 0.96905684
0000f0 23 aa 0d 3f a3 7e 2a 3f 74 ca a9 3f bd 9e 86 3f
       0.55337733 0.6659948 1.3264909 1.0517193

weight f4 [64]
000000 26 34 80 3f 34 9a 7e 3f 8a 3b 80 3f b3 09 80 3f
       1.0015914 0.99454045 1.001817 1.000296
000010 27 36 81 3f f4 71 7e 3f d7 9c 81 3f e0 f4 80 3f
       1.0094651 0.9939263 1.0125989 1.007473
000020 2c 9c 7d 3f ca 60 7f 3f 97 31 7d 3f 77 73 80 3f
       0.99066424 0.99757063 0.98903793 1.0035237
000030 a4 4b 80 3f 0e 18 81 3f 49 0f 80 3f e0 26 80 3f
       1.0023084 1.0085466 1.0004665 1.0011864
000040 1f ba 7b 3f 62 1a 7f 3f b9 19 7f 3f 2f f0 80 3f
       0.98330873 0.9964963 0.99648625 1.0073298
000050 b6 1f 80 3f 8e 0b 81 3f 71 28 7e 3f a0 5d 81 3f
       1.0009677 1.0081651 0.9928046 1.0106697
000060 88 4d 80 3f 58 56 81 3f 84 78 80 3f 64 62 7b 3f
       1.0023661 1.0104475 1.0036778 0.9819701
000070 fa 94 7f 3f c4 b4 81 3f ba fa 80 3f 7d 73 7e 3f
       0.99836695 1.013329 1.0076516 0.9939497
000080 82 7f 7f 3f 6e d4 7e 3f e6 af 80 3f 79 76 7f 3f
       0.99803936 0.9954289 1.005368 0.9979015
000090 88 bc 80 3f f2 b6 7c 3f 9e 48 80 3f db 1d 7d 3f
       1.0057535 0.9871665 1.0022161 0.9887368
0000a0 70 4d 81 3f 34 60 81 3f 65 34 82 3f 40 32 7e 3f
       1.0101757 1.0107484 1.017224 0.99295425
0000b0 a7 32 80 3f a5 13 7a 3f 48 93 81 3f 31 39 7d 3f
       1.0015458 0.97686225 1.0123072 0.9891539
0000c0 5e f7 7f 3f 35 40 80 3f 34 3d 81 3f 39 eb 7a 3f
       0.9998683 1.0019594 1.0096803 0.9801517
0000d0 13 d9 7e 3f 21 08 7e 3f 67 26 81 3f 4a 0a 81 3f
       0.9954998 0.99231154 1.0089844 1.0081265
0000e0 66 dc 80 3f a5 b6 7e 3f 2c f2 80 3f 2d 4e 7f 3f
       1.006726 0.99497443 1.0073905 0.9972866
0000f0 11 5e 7f 3f 3b 97 7e 3f 82 91 80 3f be ff 80 3f
       0.9975291 0.9944951 1.0044405 1.0078046
